optogenetic_model_fits/June152023Onwards/DataDriven/savedModels/autoEncoder.pt (torch, 4855 bytes, 8 tensors)

encoder.input_layer.weight f4 [16, 10]
00000000: a5ed 83be 8f5c 493e aa72 3d3e d253 933d
00000010: c791 73be 2747 4c3c 935f d63b a367 483d
00000020: dca9 aa3d 64d3 f7bd 8c4f 013f 7052 773e
00000030: 7db5 74bd f768 a33e d49d f33e e476 2c3e
00000040: 6545 003f c32e 1e3e 77df 1a3f fc68 a53e
00000050: 94b2 963f a048 563f b140 403f 9fce c93e
00000060: bf3b 5d3e 1e94 cc3d ced3 58be 173c 5fbe
00000070: 15f3 22bf e767 1fbf d5fe 2d3e c12a a0bd
00000080: cdba 4bbe c3ff 23be 35cb fabc cd75 07bd
00000090: f738 c43d 5bd6 8a3e d1c7 83be 44a5 ad3d
000000a0: c274 6abf 293d 9abf 40f0 b5bf 68da 35bf
000000b0: 9380 6abf ccce 8fbf 5a9c 22bf 8cd2 38bf
000000c0: d1ac 98be 79bf afbe dca7 ca3e 3c17 d73e
000000d0: df13 1e3f 723e 8b3e ba4b 8bbe 8c45 14bf
000000e0: 9c1e 43bf 464b 91bf 1791 e2bf b197 dfbf
000000f0: 33c2 cf3e 71a1 cc3e bd00 7a3d 1923 8fbd
00000100: 85b5 b03e 3202 c73d a597 9bbe 0acf 2ebf
00000110: b3c3 8fbf 4d13 9fbf ebc8 46be 7cca d13d
00000120: 5f87 383e c41c 493e a9da f13d dc3e 243e
00000130: 885d 913e ac04 2f3e 21f5 ca3e 639b 5c3e
00000140: 715d c43c 756b b33e c329 4fbe 4b12 a43e
00000150: 79d5 b1be 68c4 9bbc cadc 4c3e 80a5 15be
00000160: 3db7 bc3b c159 babe 076d a73e e638 f93d
00000170: 68fd e03e 2ba7 d63e 8742 f5bc 8989 d33e
00000180: a918 d83e 8613 f53c ce57 1e3e 9c3c 3c3e
00000190: e0c3 f9be 81c7 2dbe 91c7 1ebf eeea 10bf
000001a0: 2302 b13c 413e 2cbe 7e56 51be de28 35bf
000001b0: ffc9 12bf b799 abbe 57e9 2dbe e605 6c3e
000001c0: ad4c 90bd 2862 b83d 3c90 3fbd 9100 ef3d
000001d0: ce08 10be 97d4 87be 4f40 9f3e eb7a 65bd
000001e0: c708 26be 3135 3fbe 84b4 a13d c46a a4bd
000001f0: 1692 87be dc82 b03c 9911 a93d 9efd 7bbe
00000200: 8d77 7a3e b776 c4be 2b52 c3c0 c040 c1c0
00000210: da79 b4c0 6f6e 6fc0 d110 4bc0 8f10 72c0
00000220: 0d2b 35c0 1ccc 30bf 8ae5 b43e 4712 ed3f
00000230: 96c4 66c0 f056 3ac0 95bb 04c0 e3e7 b0bf
00000240: 256a 01c0 9d6b 7dc0 be8a 8ac0 bde8 2dc0
00000250: 710c 1bc0 300c 6cc0 05b3 38c0 fb19 5bc0
00000260: f5f0 49c0 e9be 22c0 765d 84bf 0931 9c3f
00000270: 9df8 2240 907b f23f e484 8f3f 838d 503f
-0.25767246 0.19664215 0.18500772 0.07193722 -0.23786078 0.012468136 0.006542155 0.04892696
0.08333179 -0.121008664 0.50512004 0.24152541 -0.059743393 0.3191602 0.4758135 0.16842228
0.5010589 0.15447526 0.6049723 0.3230666 1.1773248 0.83704567 0.7509871 0.39415452
0.21604823 0.099891886 -0.21174547 -0.21800266 -0.63652164 -0.6226792 0.16991742 -0.07820655
-0.19895478 -0.16015534 -0.030614475 -0.033071328 0.09581178 0.27116665 -0.25738385 0.084787875
-0.9158441 -1.2049915 -1.4213943 -0.71036386 -0.9160244 -1.1234984 -0.63519824 -0.7219627
-0.29819348 -0.3432577 0.39581192 0.42009914 0.6174907 0.2719608 -0.27206212 -0.5791862
-0.7621858 -1.1351097 -1.7700528 -1.7468168 0.4057785 0.3996692 0.06103586 -0.06989116
0.34513488 0.097172156 -0.30389133 -0.68284667 -1.1231598 -1.2427765 -0.19412582 0.10243699
0.1802039 0.1963988 0.11809284 0.16039604 0.2839167 0.17091626 0.39640144 0.2154365
0.023970338 0.3504292 -0.20230775 0.32045206 -0.3473318 -0.019014552 0.200061 -0.14613914
0.0057591484 -0.36396602 0.3270037 0.12169056 0.43943334 0.41924414 -0.02993895 0.41315868
0.42206314 0.029916536 0.15463182 0.18382496 -0.48782253 -0.16970636 -0.62023264 -0.56608474
0.021607464 -0.16820623 -0.2044315 -0.70765483 -0.5733947 -0.33515713 -0.16983543 0.23049125
-0.07045875 0.09003097 -0.046768412 0.1167003 -0.14065859 -0.2652938 0.3110375 -0.056025427
-0.16214286 -0.18672635 0.07895759 -0.080281764 -0.26478642 0.021546774 0.082553096 -0.24608466
0.24459668 -0.38371822 -6.1037803 -6.039154 -5.6398745 -3.7411153 -3.1729014 -3.7822607
-2.8307526 -0.69061446 0.35331374 1.8521203 -3.6057487 -2.9115562 -2.073949 -1.3820766
-2.0221035 -3.9596932 -4.3294363 -2.7173302 -2.4226344 -3.6882439 -2.8859265 -3.4234607
-3.1553319 -2.5429022 -1.0341022 1.2202464 2.5464242 1.8943958 1.121243 0.8146593

encoder.input_layer.bias f4 [16]
00000000: b8c1 bc3b f291 f83e 44fe 9c3f 677d f53d
00000010: 8f21 f8be 04fc 253d 87ac 453f 4c4b 99bf
00000020: 0f7f ff3d 0491 a83e 5553 d2be 409f d3b8
00000030: a40e 1f3f 60e9 ea3d 4781 703f 7e4e 53c0
0.0057603978 0.48548847 1.2265096 0.11986809 -0.48463103 0.040523544 0.7721638 -1.1976104
0.124754064 0.32923138 -0.41079202 -0.00010090927 0.62131715 0.11470294 0.9394726 -3.3016658

encoder.output_layer.weight f4 [2, 16]
00000000: 5a59 46bb 109e 81be 93be 03bd 9771 28bd
00000010: 8148 38c0 54d0 f03d 6f94 fb3d 76c9 0abf
00000020: 8459 dc3d c90f 7dbe 7cdb 7d3e ddd6 2a3c
00000030: 9d10 d3bb 08c9 6cc0 89c3 05c0 40c2 abbe
00000040: 2225 51bd b32c 24bf 0870 873f 70a0 463d
00000050: f43f 62bf ef32 0a40 ca2b ca3f a66d bd3e
00000060: 7ce7 c4bc 87d2 babd 29bf c6be 12f2 243c
00000070: 9415 6f3d 1e8f 4440 f14f 6ac0 07d7 9440
-0.003026566 -0.25315905 -0.032164168 -0.041123953 -2.8794253 0.117584854 0.12284171 -0.54213655
0.10759261 -0.24713053 0.24790758 0.010427204 -0.0064411894 -3.69977 -2.0900595 -0.33546638
-0.051060803 -0.64130706 1.0581064 0.04849285 -0.88378835 2.1593587 1.5794613 0.36997718
-0.024036162 -0.09122186 -0.3881772 0.01006748 0.058370188 3.0712352 -3.6611292 4.6512485

encoder.output_layer.bias f4 [2]
00000000: 93bb 603e 181c edbd
0.21946554 -0.11577624

decoder.input_layer.weight f4 [16, 2]
00000000: 7d5d 89bf 0c2b 3d3e 218b 36c0 f44b a63e
00000010: 5be0 333f 6857 673f 055c 063f d762 883f
00000020: dbaa 863e 2b2c 09c0 766c a73f 1bb3 07bf
00000030: b2f6 febc f374 07bd ffdd 6e3f 5817 19bf
00000040: 3cdb 853f f9f4 90bd 2d69 703e 6e7a f4be
00000050: be8d c4bf ffa2 603e f7a9 d4bf 1ddd f23e
00000060: 0279 273f cfc6 f43e f0c4 5f3f 777f 51bf
00000070: 7638 673e e160 a6be 2ad8 80bf 2a52 813f
-1.0731655 0.18473452 -2.8522418 0.32479823 0.70264214 0.90367746 0.5248416 1.0655164
0.26302227 -2.1433208 1.3079975 -0.5300767 -0.031123493 -0.033070516 0.9330749 -0.59801245
1.045753 -0.07077975 0.23477621 -0.47749656 -1.5355756 0.21937178 -1.6614369 0.4743432
0.6541902 0.4780793 0.8740988 -0.8183512 0.22580132 -0.32495788 -1.0065968 1.01032

decoder.input_layer.bias f4 [16]
00000000: 55b5 e33d 6911 ce3e ce2c 61be f82c cd3e
00000010: 5e3f bc3e 3cca 0b3f b3b5 d33c 0922 cb3d
00000020: 3b9d 4c3e 7d94 323e f41a 1ebd 26da 21bd
00000030: 0fdd bc3c 0922 d23e e7e2 273e 2a3d 81be
0.11118571 0.40247658 -0.21989748 0.4007337 0.36767095 0.5460546 0.025843477 0.09918601
0.19981854 0.17439456 -0.038599923 -0.039514683 0.023054628 0.41041592 0.1639515 -0.25241977

decoder.output_layer.weight f4 [10, 16]
00000000: ea87 2b3e b250 31be a501 fabe 44c3 80be
00000010: baea 29bf 6562 4cbf 7822 95be b610 31bf
00000020: f198 f7be f5e3 febe dcc4 063f 47d0 1e3e
00000030: a653 15bf 6fcb a7bf 44e6 07bf 7def 153f
00000040: df38 773e 67a1 a13d 7f5d 8ebe 266a 0dbf
00000050: 4c17 30bf 1343 5cbf 1b65 82be d43d 03bf
00000060: 7550 1dbf cfe8 babe 9610 a03e 0d00 3d3e
00000070: d30e b5be c190 8cbf 1184 afbe 4faa 233f
00000080: 7e4a 233e f8bd 353e bd5d a8be 16d4 0cbf
00000090: 784a 7dbe e0c7 59bf 30f0 99be cd67 1cbf
000000a0: 5b09 f8be 803b d3be 074f f53e fb1e fa3e
000000b0: 13db a2be f610 79bf 6457 8bbe 0e39 f53e
000000c0: 2c8c 9b3e a880 b13e 5091 b3be ee02 c5be
000000d0: 75d5 883e 32fe 4bbf 7d08 82be e221 bbbe
000000e0: 4d6d 1bbf e387 dabd 8c8f 0e3f ae83 ee3e
000000f0: 6a11 00bf 4bf0 5ebf 94a2 23bf 0665 c13e
00000100: c994 9b3e 9b15 133f 4af4 e6be 35ec ecbe
00000110: 78a7 413f 0ba0 30bf 6243 91be 02db ccbe
00000120: 1b8e b5be 1d2f d9bd b0b7 0f3f abd5 3d3e
00000130: c9ce 19bf 516e 6cbf 36ca 93be 9b62 363f
00000140: 0cb8 c83e 4499 1a3f faab d5be 8558 e1be
00000150: 2633 793f 5733 37bf a340 76be 6253 88be
00000160: 7ace 3fbf f83f d63d fd2e 393f 9774 e53e
00000170: de99 cabe 97ce 97be 6303 c2be f549 103f
00000180: dbf4 aa3e 60c2 373f f24a 19bf 1d89 ffbe
00000190: 7c3d 683f 3401 22bf 4964 87be faa0 f73d
000001a0: 1b19 01bf 560e 233e 949d 443f 89f1 083f
000001b0: ed50 23bf dadf 95be 5c75 00bf 9570 163f
000001c0: b951 ac3e 45f0 503f c059 3ebf a240 e7be
000001d0: 15ca cc3e ab88 00bf 9a35 44be 14f4 53bd
000001e0: 5c46 1ebf 0dfa 953e bf99 903f 3a09 063f
000001f0: 3218 37bf fd90 b73e c4b3 383d 79f2 d33e
00000200: fe50 093f a71d 533f 0221 4ebf d10d 73bf
00000210: da79 54be 9533 73be e332 5dbe 1c69 073f
00000220: f344 debe bf68 f73e bc03 833f 6746 433f
00000230: 4935 05bf 343b 98bb 6fb4 fdbe 4091 5b3e
00000240: a8f3 063f d808 893f e686 65bf ddb1 77bf
00000250: 56fb 43bf 88cf 2bbe 6013 58be 5dce e13e
00000260: cec7 acbe 03a6 023f c89f 703f 16b9 093f
00000270: cc05 41bf 8415 683e d8a0 49be 8dd8 18be
0.16751066 -0.17315939 -0.4882938 -0.25148976 -0.6637379 -0.7983764 -0.2912786 -0.69166124
-0.48358873 -0.49783292 0.52644134 0.15509139 -0.5833076 -1.3108958 -0.5308573 0.58568555
0.24142788 0.07892113 -0.27805707 -0.55240095 -0.6878555 -0.8603985 -0.25467762 -0.5126622
-0.6145089 -0.36505744 0.31262654 0.1845705 -0.35362872 -1.0981675 -0.34280446 0.63931745
0.15946385 0.17748249 -0.32884017 -0.5501112 -0.24735439 -0.8507061 -0.3006606 -0.6109589
-0.48444638 -0.41256332 0.47911856 0.4885176 -0.31807765 -0.97291505 -0.2721511 0.47895092
0.3038038 0.3466847 -0.35071802 -0.38478798 0.26725355 -0.79684746 -0.253971 -0.36549288
-0.60713655 -0.106704496 0.55687785 0.4658484 -0.5002657 -0.8708541 -0.6391995 0.37772387
0.30386952 0.5745484 -0.45108253 -0.46273962 0.7564616 -0.68994206 -0.28371722 -0.4001084
-0.3545998 -0.10604689 0.5613966 0.18538539 -0.60081154 -0.9235583 -0.28865212 0.7124421
0.39202917 0.60390115 -0.4173277 -0.44012848 0.9734367 -0.71562713 -0.24048094 -0.26626116
-0.74924433 0.1046142 0.72337323 0.44815513 -0.39570516 -0.29649803 -0.3789321 0.5636285
0.33389935 0.7178097 -0.5987998 -0.49909297 0.9071882 -0.63283086 -0.264437 0.12091251
-0.5042893 0.15923437 0.76802945 0.53493553 -0.6379536 -0.29272348 -0.50179076 0.58765537
0.336561 0.8161662 -0.743557 -0.45166498 0.39997926 -0.5020854 -0.19161072 -0.051746443
-0.6182611 0.29292336 1.129692 0.5235783 -0.71521294 0.35852805 0.045093313 0.4139593
0.5363921 0.8246712 -0.80519116 -0.9494296 -0.20749608 -0.23750146 -0.21601443 0.5289476
-0.4341198 0.48322102 1.0235515 0.762793 -0.5203443 -0.0046457294 -0.49551722 0.21442127
0.5271554 1.0705824 -0.89658964 -0.9675577 -0.76555383 -0.16778386 -0.21101141 0.44102755
-0.3374619 0.51034564 0.93993807 0.53798044 -0.7539947 0.22664458 -0.19690263 -0.14926358

decoder.output_layer.bias f4 [10]
00000000: 11d6 28bf c59e 06bf 4d2a dfbe e836 c5be
00000010: 517f 9abe 1821 84be 1dec 55be de03 bfbe
00000020: b5bf 74be fd75 c0be
-0.6595164 -0.52586013 -0.4358696 -0.38518453 -0.3017526 -0.258065 -0.20890851 -0.37307638
-0.23901255 -0.37590018
