optogenetic_model_fits/June152023Onwards/DataDriven/savedModels/GRU_model.pt (torch, 3245 bytes, 5 tensors)

network.weight_ih_l0 f4 [30, 1]
0	0x410047bc	8.017513
1	0x3e61e7a2	0.22061017
2	0xc11ef2b7	-9.934257
3	0xbff2629f	-1.8936347
4	0xbf9841fc	-1.1895137
5	0xc025a1c9	-2.5879996
6	0x3fd8c11a	1.693393
7	0x3fde137d	1.7349697
8	0xc08fa1fd	-4.488524
9	0x3f9c51db	1.221248
10	0x3e14197f	0.14462851
11	0x3f8034dd	1.0016133
12	0x3f163143	0.5866892
13	0xbfb47417	-1.4097928
14	0xbf82e439	-1.0225898
15	0xc0c314d8	-6.0962944
16	0xc097a301	-4.738648
17	0xc0997140	-4.7950745
18	0xc147962e	-12.474165
19	0xbf9b4f6e	-1.2133615
20	0x3cb6a3c6	0.02229489
21	0x3eaaa3e7	0.33328173
22	0xc0c1d720	-6.0575104
23	0x3f084e01	0.53244025
24	0x404d48f4	3.2075777
25	0xc07b4af5	-3.92645
26	0xbf38dd6c	-0.7221286
27	0xbed47030	-0.41491842
28	0xbf4de8fb	-0.80433625
29	0xbdcd9564	-0.100382596

network.weight_hh_l0 f4 [30, 10]
0	0x3e1c45db	0.15261023
1	0x3eeed7e3	0.46649083
2	0xbfbcace2	-1.474026
3	0xbf329aab	-0.69767255
4	0x3ffba94c	1.966104
5	0xbeab2ef1	-0.3343425
6	0x3f599cda	0.8500496
7	0xbffe2ffe	-1.9858396
8	0xbf2b3b58	-0.66887426
9	0xbf6cba39	-0.92471653
10	0xbf9f7278	-1.2456808
11	0x3fc4d4e6	1.5377471
12	0x3f86924a	1.0513394
13	0xbf2fd333	-0.6868164
14	0x3f0ac06e	0.54199874
15	0xc017ff60	-2.3749619
16	0xbf48a869	-0.78381974
17	0x3f0594da	0.52180254
18	0x3f9c02b9	1.2188331
19	0xbf0d43d4	-0.5518162
20	0xc035ed74	-2.842618
21	0xbf1af262	-0.60526097
22	0x4018989f	2.3843153
23	0x3f6075eb	0.8767993
24	0xbe0308b5	-0.1279629
25	0x3fcb190b	1.5867018
26	0x400a12e3	2.1574028
27	0xbfa013ca	-1.2506039
28	0xbebc7032	-0.36804348
29	0xbf389005	-0.72094756
30	0x3ea689df	0.32527062
31	0xc01a3878	-2.4096966
32	0xc05900e6	-3.3906798
33	0xbeabc7e0	-0.3355093
34	0x403fd018	2.997076
35	0x3f010927	0.5040459
36	0x3f534ffd	0.8254393
37	0xbe6fa0e5	-0.2340122
38	0xbe22b365	-0.15888746
39	0x3f04fa5a	0.51944506
40	0x3f12328a	0.57108366
41	0x3e910058	0.28320575
42	0xbd8dba9a	-0.06920357
43	0xbf8112ca	-1.0083859
44	0xbfb07f1c	-1.3788791
45	0xbeca323b	-0.39491448
46	0xbf325067	-0.69653934
47	0x3fc76e62	1.5580561
48	0x3f4d4859	0.8018852
49	0x3d0ce0b6	0.03439399
50	0xc00764f9	-2.115538
51	0xbf88d509	-1.0690013
52	0xbe1e3a66	-0.15451965
53	0x3e4ceadb	0.20011465
54	0x3ea455f5	0.3209683
55	0x3f4addb5	0.7924455
56	0x3e2fe3ae	0.17176697
57	0xbfc9617f	-1.5732878
58	0xbda8585a	-0.08219977
59	0x3f8f0fff	1.1176757
60	0xbfb0e319	-1.3819305
61	0x3f9e3962	1.2361262
62	0x3fc41ad8	1.5320692
63	0x3f396ba5	0.7242988
64	0xbf0eb1ae	-0.5573987
65	0xbfd52d6b	-1.6654485
66	0x3ecf2abb	0.40462288
67	0x3e656874	0.22403127
68	0x3f119b23	0.56877345
69	0xbede5bce	-0.43429416
70	0xbfbe37ef	-1.486082
71	0xbfa5cfe2	-1.2954066
72	0x3f6ad449	0.9173017
73	0xbedf8eed	-0.4366373
74	0xc04e8945	-3.2271283
75	0xbf893afb	-1.0721124
76	0x3e4750e0	0.19464445
77	0x3f92bc2c	1.1463675
78	0x3f830ff9	1.023925
79	0xbf80bac3	-1.0056995
80	0xbee69a7a	-0.4503973
81	0x3f0f505f	0.5598201
82	0xbe34effb	-0.1766967
83	0xbd8d0f57	-0.068876915
84	0xbf738ba6	-0.9513496
85	0x3f4d1007	0.8010258
86	0xbf600f85	-0.8752368
87	0x3ec07c21	0.37594703
88	0x3f83c86c	1.0295539
89	0xbf0a88e0	-0.54115105
90	0xbf7014c4	-0.93781686
91	0xbf661a35	-0.8988374
92	0x3edc314f	0.4300637
93	0xbe66d0ce	-0.2254059
94	0xc0443024	-3.0654383
95	0xbf7e3a58	-0.99307775
96	0x3f85b014	1.044436
97	0x3e80fc5a	0.2519253
98	0xbed573b7	-0.41689846
99	0xbf897001	-1.0737306
100	0x3eb8bc08	0.36080956
101	0xbfc008d7	-1.5002698
102	0x3eb15001	0.3463135
103	0xbc8fcdbc	-0.017554156
104	0xbb1023cf	-0.0021994
105	0x3dce19bd	0.10063503
106	0xbe943e64	-0.2895385
107	0xbecb0c25	-0.39657703
108	0x3edded0a	0.4334491
109	0x3de11d64	0.10991934
110	0x3f40c341	0.75297934
111	0x3fdb2770	1.712141
112	0x3e841ac5	0.25801674
113	0xbd7bd6f0	-0.061484277
114	0x3ec3172f	0.38103625
115	0x3f591e18	0.84811544
116	0xbe044a29	-0.12918915
117	0xc01f684d	-2.490741
118	0xbef6b08c	-0.4818157
119	0xbf40225c	-0.7505243
120	0x3fbac06f	1.4589976
121	0xbf2ea6ee	-0.68223464
122	0x3e4b23d9	0.19837894
123	0x3e823b11	0.2543569
124	0x3eda2f37	0.42614147
125	0x4017a524	2.3694544
126	0x3c3f8596	0.011689564
127	0xbf37f6da	-0.7186104
128	0x3f60e0ae	0.87842834
129	0xbe4e1373	-0.20124607
130	0x3f16d8e5	0.58924705
131	0x3d8bad86	0.06820206
132	0xbe39f26e	-0.18158886
133	0xbf059007	-0.52172893
134	0x4044b007	3.0732439
135	0x3f4951b3	0.7864029
136	0x3f88417e	1.0644987
137	0xbe24b1ef	-0.16083501
138	0xc000159a	-2.0013185
139	0x3eb65432	0.3561111
140	0x3f80c2d1	1.0059453
141	0x3e0956d3	0.13412027
142	0x3fbb1a09	1.461732
143	0xbfd9b002	-1.7006838
144	0xbfcd5bf7	-1.604369
145	0xbe5b637f	-0.21424673
146	0xbd7b8129	-0.061402474
147	0x3d61ca95	0.055124838
148	0x3da67ea0	0.081296206
149	0xbdb3af79	-0.08773703
150	0x3f8d0b0f	1.1019
151	0xbe8b4aeb	-0.27205595
152	0x3f8fa58d	1.1222397
153	0xbfe7f635	-1.8122011
154	0x3eb11fb4	0.345945
155	0xbfb82fff	-1.4389647
156	0xbf1ecb62	-0.6202909
157	0xbfabdd61	-1.3426934
158	0xbe9c0e05	-0.30479446
159	0x3f6fbc6f	0.936469
160	0x3e86e316	0.26345128
161	0x3f4f2e07	0.8092961
162	0xbe868090	-0.2626996
163	0xbf92b2e2	-1.1460841
164	0xbe020ff0	-0.12701392
165	0x3eb6a7bb	0.35674843
166	0x3ea82924	0.32843888
167	0x3e1a4850	0.15066648
168	0xbdeb53fc	-0.11490628
169	0x3e0f04a0	0.13966608
170	0x3fddfbe8	1.7342501
171	0xbff5a655	-1.9191386
172	0xbf60a235	-0.8774751
173	0xbf80711b	-1.0034517
174	0x3f532d83	0.8249132
175	0x3dbb7384	0.09152892
176	0x3d383f80	0.044982433
177	0x401b8fff	2.4306638
178	0x3f2a109f	0.6643161
179	0xbf53d01e	-0.82739437
180	0xbf5c0f7e	-0.8596114
181	0xbef485f6	-0.47758454
182	0x3eccfe43	0.40037736
183	0x3d0a6a19	0.03379259
184	0xbf04c3b9	-0.5186115
185	0x3ee7cb02	0.4527207
186	0x3fcc8dfa	1.5980828
187	0xbee3522f	-0.4439864
188	0x3f978ece	1.1840456
189	0xbf3b9804	-0.7327883
190	0x3fd736d5	1.6813608
191	0x4012bd07	2.2927873
192	0x3e0ae84c	0.13565177
193	0xbda66741	-0.08125163
194	0xbdea11a2	-0.114291444
195	0xbf39a8b3	-0.7252304
196	0xbe7c3f6f	-0.24633573
197	0x3e745d96	0.23863825
198	0x3de70c0e	0.11281596
199	0x400693b0	2.1027641
200	0x3ed7088a	0.41998702
201	0x3de66ed3	0.11251607
202	0xbe121040	-0.14264011
203	0x3ed6a088	0.4191935
204	0xbe93c3a0	-0.28860188
205	0xbf118ddc	-0.56857085
206	0xbf880201	-1.0625612
207	0x3f9db7b3	1.2321686
208	0x3f4daa39	0.80337864
209	0xbf963b66	-1.1736877
210	0x3f2c25ca	0.6724516
211	0x3f9da0fe	1.2314756
212	0x3c898e3b	0.016791454
213	0xbf6cd001	-0.9250489
214	0xbe84d027	-0.25940058
215	0x3d98cf6e	0.07461439
216	0xbf5b4fff	-0.8566894
217	0x3f46efff	0.77709955
218	0x3f20301d	0.62573415
219	0xbfb21146	-1.3911521
220	0x3ecf16b8	0.4044702
221	0x3f292edf	0.66087145
222	0x3f43eff0	0.7653799
223	0x3f0a908e	0.5412682
224	0xbfb0bee6	-1.3808258
225	0x3e987189	0.2977412
226	0x3f2e1c9a	0.6801239
227	0xbf9bf3d2	-1.2183783
228	0x3e874b07	0.2642443
229	0xbf5d4f38	-0.86449003
230	0x3e47d733	0.19515686
231	0x3f8ad326	1.0845687
232	0x3ec25dbb	0.37962136
233	0x3ef85367	0.4850113
234	0xbf590c60	-0.8478451
235	0x3f15db91	0.58538157
236	0x3e1d1ba1	0.15342571
237	0x3f0710dd	0.52760106
238	0xbe0f3059	-0.13983287
239	0x3d5adaef	0.053431448
240	0x3ee7b9f2	0.45259053
241	0x3ef74a7f	0.48299024
242	0xbfb531fc	-1.4155879
243	0x3e03aeb2	0.1285961
244	0x3fa41b02	1.2820742
245	0x3dccd767	0.10002022
246	0x3eb8affb	0.36071762
247	0x3eecc7d8	0.4624622
248	0xbd046326	-0.032321118
249	0x3efd6ffe	0.49499506
250	0xbf3c720a	-0.7361151
251	0x3f50f9c4	0.8163111
252	0x3e9e2911	0.30890706
253	0xbe0c81ab	-0.1372134
254	0x3f8bc36d	1.0919014
255	0x3f5ad4f2	0.8548118

network.bias_ih_l0 f4 [30]
0	0xbe3645ce	-0.17800066
1	0xbdcc3ff6	-0.09973137
2	0xbea07b5d	-0.3134412
3	0xbf364d2b	-0.712115
4	0xbed56407	-0.41677877
5	0xbf096950	-0.5367632
6	0xbeab7bec	-0.33492982
7	0xbeeb9a61	-0.4601622
8	0x3da809ae	0.08204971
9	0xbe322385	-0.17396362
10	0x3ebdfa2f	0.37104937
11	0x3f07ff0a	0.53123534
12	0x3f5a43c9	0.8525968
13	0xbdb1f717	-0.08689707
14	0x3e6908e3	0.22757296
15	0x3e6ab904	0.2292214
16	0x3f1f8f08	0.62327623
17	0x3f2c518a	0.6731192
18	0x3f07fca3	0.5311987
19	0x3f7abae3	0.97941417
20	0xbe8ad7e5	-0.2711784
21	0xbecd3180	-0.40076828
22	0xbe3b7942	-0.18307975
23	0xbc77eba3	-0.015131864
24	0xbec1b027	-0.37829706
25	0x3e42fca8	0.19041693
26	0xbe4bd2af	-0.19904588
27	0xbd741919	-0.059594247
28	0x3ebfa27a	0.37428647
29	0x3d4bfd82	0.04980231

network.bias_hh_l0 f4 [30]
0	0xbcc56738	-0.02409707
1	0xbe89c4bc	-0.2690791
2	0xbef46b87	-0.47738287
3	0xbf3306c8	-0.6993222
4	0xbee34dbd	-0.44395247
5	0xbef36eca	-0.47545463
6	0xbe0f5d93	-0.1400054
7	0xbf026031	-0.50928026
8	0x3deca545	0.1155496
9	0xbc9fe76b	-0.019519528
10	0x3e88bc84	0.26706326
11	0x3e9dc03f	0.30810735
12	0x3f551288	0.832314
13	0xbd9d802a	-0.07690461
14	0x3e572667	0.21010743
15	0x3e5f5db1	0.21813084
16	0x3f18e11d	0.59718496
17	0x3edfc7a2	0.43706995
18	0x3f3d2757	0.7388815
19	0x3f89b5af	1.075857
20	0x3f349a28	0.70547724
21	0x3e0bb413	0.13642912
22	0x3f1977e9	0.59948593
23	0x3d9d463d	0.076794125
24	0xbe5fa864	-0.2184158
25	0xbd2c2a2f	-0.042032417
26	0xbe88d83e	-0.2672748
27	0x3ea38029	0.31933716
28	0x3f040609	0.5157171
29	0xbecedd56	-0.4040324

output.0.weight f4 [1, 10]
0	0xbf2748d0	-0.6534548
1	0xbec5f65a	-0.38664514
2	0x3e4a693e	0.19766709
3	0x3ec56923	0.38556775
4	0x3e973827	0.29535028
5	0x3d4b5d98	0.049649805
6	0x3f1b7ade	0.60734355
7	0xbf39259b	-0.72323006
8	0xbf25e1f4	-0.647979
9	0x3f050c34	0.51971745
