optogenetic_model_fits/June152023Onwards/DataDriven/savedModels/latentRHS_jupyter.pt (torch, 25435 bytes, 13 tensors)

encoder.input_layer.weight f4 [32, 39]
0	0xbd563035	-0.052292068
1	0x3c86d36a	0.016458232
2	0xbdcf558d	-0.101237394
3	0xbe32c637	-0.17458425
4	0xba0d9dbe	-0.00054022286
5	0xbe0236ca	-0.12716213
6	0xbe22f3c2	-0.15913299
7	0xbdd3e4d8	-0.10346383
8	0xbe92d829	-0.28680542
9	0xbe8c8957	-0.27448532
10	0xbe8b3dcc	-0.27195585
11	0xbe301a34	-0.17197496
12	0xbe30f853	-0.17282228
13	0xbe895d30	-0.2682891
14	0xbde99130	-0.114046454
15	0xbdc92917	-0.098222904
16	0xbd6410af	-0.055679973
17	0x3e89d3ad	0.26919308
18	0x3f880c8e	1.0628831
19	0x4015ab38	2.3385754
20	0xbd23af8e	-0.039962344
21	0xbdbe23ab	-0.09284147
22	0xbdb18d0d	-0.086694814
23	0x3d2cc55b	0.0421804
24	0xbdf09db2	-0.11748828
25	0xbee06eda	-0.43834573
26	0xbf054d52	-0.52071106
27	0xbeee43d9	-0.4653614
28	0xbeb16d3d	-0.34653655
29	0xbf16c2da	-0.5889107
30	0xbf014068	-0.504889
31	0xbecedde4	-0.40403664
32	0xbecbbbe9	-0.39791802
33	0xbdff4838	-0.124649465
34	0xbba830a3	-0.005132751
35	0x3cc62ff3	0.024192786
36	0x3eb62e70	0.35582304
37	0x3ee92031	0.45532373
38	0x3f1cfb4d	0.61320955
39	0x3ffe175f	1.9850882
40	0x3f2da676	0.67832124
41	0xbe75ac6e	-0.23991558
42	0xbf4857cc	-0.7825897
43	0xbf6a9207	-0.9162907
44	0xbf7ff2a7	-0.99979633
45	0xbf44d4ea	-0.7688738
46	0xbf22959c	-0.63509536
47	0xbeced6c1	-0.4039822
48	0xbea18fe9	-0.31555107
49	0xbe21e42d	-0.15809698
50	0xbef0fa27	-0.4706585
51	0xbe392b27	-0.18082868
52	0xbdfaafb6	-0.122405455
53	0x3ebcb86f	0.36859462
54	0x3f39b978	0.7254863
55	0x3f8aea66	1.0852783
56	0x3facb61a	1.3493073
57	0x3f3a5464	0.7278502
58	0xbf170cbd	-0.5900381
59	0x3e30f232	0.1727989
60	0x3e847bb1	0.2587562
61	0x3de3359b	0.11094209
62	0x3b08183d	0.00207664
63	0xbf09d882	-0.5384599
64	0xbf2b2480	-0.6685257
65	0xbf2b7bd0	-0.669858
66	0xbf25c5ee	-0.6475514
67	0xbe61886d	-0.22024699
68	0xbed46e42	-0.4149037
69	0xbe14355e	-0.14473483
70	0x3c93cda3	0.018042391
71	0xbf0de995	-0.5543454
72	0x3eba4eb4	0.3638817
73	0x3d45e24b	0.048311513
74	0x3e7cdc16	0.24693331
75	0x3e13217d	0.14368244
76	0x3e2518b8	0.1612271
77	0xbf1488bd	-0.58021146
78	0xbe12cfed	-0.1433713
79	0xbd3d3de4	-0.0462016
80	0x3d00a64a	0.031408586
81	0x3e47e850	0.19522214
82	0x3dfce636	0.12348597
83	0x3e8bcc6d	0.27304402
84	0x3e685568	0.2268883
85	0x3e1743d8	0.14771974
86	0xbce900ad	-0.028442705
87	0xbc732254	-0.014839727
88	0xbe41a105	-0.1890908
89	0xbe772f13	-0.24139051
90	0xbec0476f	-0.375545
91	0xbeebab77	-0.46029255
92	0xbf18928d	-0.5959862
93	0xbec5f552	-0.38663727
94	0xbf115c77	-0.56781715
95	0xbf5d08a3	-0.86341304
96	0xbf85711c	-1.0425143
97	0x3ed675ac	0.41886652
98	0xbd1923ab	-0.03738753
99	0xbc049bdf	-0.008093803
100	0xbca97036	-0.02068339
101	0x3dc0ba10	0.094104886
102	0x3dfbac92	0.122887745
103	0x3e5f0443	0.2177897
104	0x3e04f88f	0.12985443
105	0x3d5cd46c	0.05391352
106	0x3e53796f	0.20651792
107	0x3e1c7171	0.1527765
108	0x3eb9ca7b	0.36287293
109	0x3e8e6e36	0.2781846
110	0x3e958af6	0.2920758
111	0x3e2a6057	0.16638313
112	0x3dae2987	0.085040145
113	0x3e0ff7a5	0.14059313
114	0x3c500e6c	0.012698751
115	0x3d337904	0.04381658
116	0x3d89e165	0.06732444
117	0xbda6c18e	-0.081423864
118	0x3d9cd815	0.07658402
119	0x3de43f6a	0.11144908
120	0x3e82db99	0.25558165
121	0x3e532a0e	0.20621511
122	0x3d488919	0.04895887
123	0x3cdf056d	0.027224267
124	0xbdfc5257	-0.123203926
125	0xbdf25b72	-0.11833848
126	0x3a67533f	0.00088243553
127	0x3beb04f4	0.0071722213
128	0x3d0337e8	0.03203574
129	0xbda5b7c1	-0.08091689
130	0xbebee67c	-0.3728522
131	0xbeea4c32	-0.45761257
132	0xbf01054b	-0.503987
133	0xbed19af6	-0.40938538
134	0xbe8c9859	-0.27459982
135	0x3f2a6e62	0.6657468
136	0x401536c1	2.331467
137	0x3e1d6f53	0.15374498
138	0x3da3fbc8	0.08007008
139	0x3df7865b	0.12086173
140	0xbc7e609a	-0.015525961
141	0x3dbe5ab5	0.09294645
142	0x3e03d3ab	0.12873714
143	0x3e55770e	0.20846197
144	0x3dd4deb6	0.10394041
145	0xbdf3c765	-0.11903266
146	0xbd8e48af	-0.06947457
147	0x3dcef30f	0.101049535
148	0x3d2a1ff6	0.041534387
149	0xbe3c3055	-0.18377812
150	0xbeb8d80a	-0.36102325
151	0xbe4dc0f9	-0.20093144
152	0xbee92934	-0.45539248
153	0xbfaa043b	-1.3282541
154	0xbfcdab36	-1.6067874
155	0xbfea1720	-1.8288307
156	0xbd4f8e3c	-0.050672755
157	0xbd1b6bc1	-0.03794456
158	0xbe62c3c5	-0.22144993
159	0xbd0b909a	-0.03407345
160	0xbe044a2b	-0.12918918
161	0x3df7fd3e	0.12108849
162	0xbe325a8e	-0.17417356
163	0xbddc0c2a	-0.107445076
164	0xbda59054	-0.08084169
165	0xbd40b9a1	-0.04705203
166	0xbe31eb66	-0.17374954
167	0xbe9f954a	-0.31168586
168	0xbddbb24e	-0.10727368
169	0xbd8e88ba	-0.06959672
170	0xbd87b94d	-0.0662714
171	0x3c9f5dfb	0.019453993
172	0xbdd0c13e	-0.10193108
173	0x3e590621	0.21193744
174	0x3f513fd7	0.81738037
175	0x4021a43e	2.5256495
176	0x3dba0728	0.09083396
177	0x3dbb81f5	0.09155647
178	0x3d83da10	0.064380765
179	0x3c85736e	0.016290393
180	0x3b149553	0.0022672012
181	0xbd4a4d9a	-0.049390413
182	0xbd7cea21	-0.06174672
183	0xbd94804c	-0.07251033
184	0xbe0ec60e	-0.1394274
185	0xbcd80b7e	-0.026372667
186	0x3d3ec9c2	0.04657913
187	0x3cbb792e	0.022884931
188	0x3cebac59	0.028768705
189	0xbce45ae3	-0.02787537
190	0xbdd66728	-0.10468894
191	0xbdead29f	-0.11465954
192	0xbe74fcec	-0.23924607
193	0xbec0b934	-0.376413
194	0xbedacde6	-0.42735213
195	0xbd2908ff	-0.041268345
196	0xbda291e0	-0.0793798
197	0xbc01f329	-0.007931509
198	0x3dd3fb4c	0.103506655
199	0x3e12cea8	0.14336646
200	0x3e5dc87f	0.21658514
201	0x3e640880	0.22268867
202	0x3cb5a96f	0.022175519
203	0xbd2d376a	-0.042289175
204	0xbd22a20e	-0.03970533
205	0xbe095567	-0.13411485
206	0xbd5678e2	-0.052361377
207	0x3ca0655e	0.019579586
208	0x3d36694a	0.044534005
209	0x3d222b3e	0.03959202
210	0x3f0a74ce	0.5408448
211	0x3f2cf57f	0.675621
212	0x3eae30c0	0.34021568
213	0xbf13ba5c	-0.57706237
214	0xc026dca4	-2.6072168
215	0xbcbb4407	-0.022859586
216	0xbe1445df	-0.14479779
217	0xbc977a52	-0.018490944
218	0x3d978129	0.07397682
219	0x3cde3a1c	0.027127318
220	0xbd8e78f4	-0.06956664
221	0x3d4f4286	0.05060055
222	0x3e2d1a81	0.16904642
223	0xbdac0c56	-0.084007904
224	0x3e9cd5c9	0.30631855
225	0x3e845e79	0.25853327
226	0x3d860f50	0.065458894
227	0xbd8c1927	-0.06840735
228	0xbd740f89	-0.059585128
229	0xbe079316	-0.13239703
230	0xbe3b800d	-0.18310566
231	0x3e96e272	0.2946964
232	0x3ea44d34	0.3209015
233	0x3f2088b2	0.6270858
234	0xbf092dd4	-0.53585553
235	0xbe5c90a5	-0.21539553
236	0xbd9ef434	-0.07761422
237	0xbd158d21	-0.036511544
238	0xbe9faaf6	-0.3118512
239	0xbcbacf9d	-0.022804076
240	0xbea0cd46	-0.3140661
241	0xbdfa5181	-0.12222577
242	0xbecb8c6e	-0.39755577
243	0xbe2bd7bf	-0.1678152
244	0xbe5cd615	-0.21566041
245	0xbe6bb787	-0.23019229
246	0xbde57df1	-0.11205662
247	0xbaa8178e	-0.0012824403
248	0xbce89196	-0.028389733
249	0x3cd3e712	0.025867019
250	0xbe1bcd0e	-0.15214941
251	0x3ea192d2	0.31557328
252	0x3f6b8076	0.9199289
253	0x4017e898	2.3735714
254	0xbe4fc5f5	-0.20290358
255	0xbe5b5115	-0.21417649

encoder.input_layer.bias f4 [32]
0	0xbe87f391	-0.26553014
1	0xbf7f2184	-0.99660516
2	0x400003a9	2.0002234
3	0xbf105fac	-0.56395984
4	0xbef201db	-0.4726704
5	0x3eda5f9e	0.42651075
6	0xbf98bf1f	-1.1933326
7	0x3d6709a6	0.056405686
8	0xbe6f0a6e	-0.23343822
9	0x3ee1b7bb	0.44085488
10	0x3d911c4b	0.070854746
11	0x3e126fe2	0.14300492
12	0xbe5369a9	-0.20645775
13	0x3ff37a95	1.9021784
14	0xbff2ae89	-1.8959514
15	0xbfc40001	-1.5312501
16	0x3e8fbc7c	0.2807349
17	0x3ec220f6	0.37915772
18	0xbf60bf3c	-0.877918
19	0xbe19ead2	-0.15030983
20	0x3f0e1c63	0.55512065
21	0xbf549014	-0.83032346
22	0xbeeb4261	-0.4594908
23	0x3f6bf89d	0.9217623
24	0xbf8493fb	-1.035766
25	0xbcefa692	-0.029254232
26	0x3f364286	0.71195257
27	0xbe08080d	-0.13284321
28	0x3f781314	0.9690411
29	0x3fb7dba5	1.4363905
30	0x3fcd603f	1.6044997
31	0x3efed32f	0.49770495

encoder.output_layer.weight f4 [20, 32]
0	0xbe7f5fd3	-0.24938898
1	0x3f17e9ad	0.59340936
2	0xbdd27070	-0.10275352
3	0xbd9a3817	-0.075302295
4	0xbf000838	-0.5001254
5	0xbce2f1e5	-0.027703235
6	0x3e0132a7	0.12616979
7	0x3ec9e6c4	0.39433873
8	0x3e2fa832	0.17154005
9	0xbe84d90b	-0.2594684
10	0x3e55a38e	0.20863172
11	0x3c81eaa4	0.015858956
12	0x3d160f06	0.03663542
13	0xbe949d88	-0.29026437
14	0x3e110fd1	0.1416619
15	0xbdebca52	-0.11513199
16	0x3e1bad74	0.15202886
17	0x3f226318	0.63432455
18	0x3e330e96	0.17486033
19	0x3e8e1ae8	0.27754903
20	0x3bc69342	0.006060035
21	0xbd3f9503	-0.046772968
22	0xbd5f97c2	-0.054588087
23	0xbdccf2da	-0.10007258
24	0x3e65e5a3	0.2245088
25	0x3dca4522	0.09876467
26	0x3dbf431e	0.093389735
27	0xbf25250b	-0.6450965
28	0xbd03b842	-0.032158144
29	0x3d656e9e	0.056013696
30	0xbecad1a1	-0.3961306
31	0x3c3b3c3f	0.011427938
32	0x3ec742f6	0.38918275
33	0xbe698447	-0.22804366
34	0xbf9c1313	-1.2193321
35	0x3f49ae49	0.78781563
36	0xbf1bb4e1	-0.60822874
37	0xc07d28bc	-3.9556112
38	0x4012c652	2.2933545
39	0x4073c744	3.8090372
40	0xc0206f25	-2.5067837
41	0x40879595	4.2370095
42	0x3f90dfe0	1.1318321
43	0x3efcc451	0.49368528
44	0xc00543ca	-2.0822625
45	0xbf8d3572	-1.1031935
46	0x3f98a874	1.1926408
47	0x3e148488	0.14503682
48	0x3ecbf194	0.39832747
49	0x410073be	8.028257
50	0xc00150c2	-2.020554
51	0x3f3741b6	0.7158464
52	0xbfc6cbf0	-1.5530987
53	0x4004d2eb	2.0753734
54	0x3fa5a947	1.2942284
55	0xbf400b46	-0.750172
56	0x3f9499f2	1.160948
57	0x3f69d126	0.9133476
58	0xbe432589	-0.19057287
59	0xbf6e9202	-0.9319154
60	0x3f02e46f	0.5112981
61	0xbfd0eda8	-1.6322527
62	0x3f09cbcb	0.5382659
63	0x3f71f8ac	0.9452007
64	0xbfbee32e	-1.491308
65	0x3e704055	0.2346204
66	0xbd571c7f	-0.05251741
67	0xc02c28c7	-2.6899889
68	0xbf8080e1	-1.0039331
69	0xbf8042f4	-1.0020432
70	0xbf08c350	-0.53423023
71	0x40caf7f9	6.34277
72	0xbcf34eef	-0.029700724
73	0xbcb8121c	-0.022469573
74	0x401428f1	2.3149989
75	0xc002f99e	-2.0464854
76	0xbf8f1c9d	-1.1180607
77	0xbf32d9fc	-0.6986387
78	0xbfae1c00	-1.3602295
79	0xbf4ec8fe	-0.8077544
80	0x3fd4e517	1.6632413
81	0x404d3171	3.2061427
82	0xbf308681	-0.68955237
83	0x4015433b	2.3322284
84	0x408b3880	4.350647
85	0x3f5fc692	0.8741237
86	0x402a3d89	2.6600058
87	0xbfccca48	-1.5999231
88	0xbd18ac7d	-0.037273873
89	0x3ff48562	1.9103205
90	0x3f4d96e8	0.8030839
91	0xbf0ea9ae	-0.5572766
92	0x3e803f47	0.25048277
93	0x3f445578	0.76692915
94	0xc02f51a9	-2.7393591
95	0x3ebfff7e	0.37499613
96	0xbda1fba9	-0.079093285
97	0x3fc095cc	1.5045714
98	0xbfe9ac2f	-1.8255671
99	0x3f237f57	0.6386618
100	0x3c094c63	0.008380028
101	0xbf58adb2	-0.8464004
102	0xbd3dca96	-0.04633578
103	0x3f9fa430	1.2471981
104	0xbef0e806	-0.4705202
105	0x3fbe9e5d	1.4892079
106	0x400d236c	2.205287
107	0x3dab11cc	0.08353004
108	0x3eba462b	0.3638166
109	0xbf5ff55c	-0.87483764
110	0xba8dbc2c	-0.0010813526
111	0x3fcca50e	1.5987871
112	0x3f19c80a	0.6007086
113	0x3fc090ce	1.5044191
114	0x3f28a7e1	0.6588116
115	0x3ff2891d	1.8948094
116	0x3f0325ef	0.5122976
117	0x400435a4	2.065774
118	0xbfa5627b	-1.2920679
119	0x3d42a36c	0.047519132
120	0xbf523acb	-0.8212096
121	0xbf5af3a8	-0.8552804
122	0x3f29fe1b	0.6640336
123	0xbf1080db	-0.5644662
124	0xbeae70bc	-0.34070385
125	0x3f2e5ad3	0.68107337
126	0x3e4c2790	0.19936967
127	0xbf50421f	-0.8135089
128	0x40200570	2.5003319
129	0x3f946544	1.1593404
130	0xbe0c655d	-0.13710542
131	0x3ecae920	0.39630985
132	0xbeddedd1	-0.43345502
133	0xbf1421d3	-0.5786411
134	0x3e44c291	0.19214846
135	0x3e998a50	0.29988337
136	0xc03d0400	-2.9533691
137	0x3eaa11c4	0.3321668
138	0x3fea71d1	1.8315984
139	0xbe2fefb2	-0.1718128
140	0x3e05f44e	0.13081476
141	0xbf84e94c	-1.0383697
142	0x3ba860fc	0.0051385146
143	0x3f6a7942	0.91591275
144	0x3f3fdea3	0.7494909
145	0x3f8b2857	1.0871686
146	0xbef1a2c7	-0.47194502
147	0x3fcc1d2c	1.5946403
148	0x3e941ec3	0.2892972
149	0x3f02b4bd	0.51057035
150	0xbf887620	-1.0661049
151	0xbd2724d1	-0.040806595
152	0x3e9300a1	0.28711417
153	0xbe0dfd30	-0.13866115
154	0x3f836c46	1.0267417
155	0xbf370e2a	-0.7150599
156	0x3caae106	0.020859253
157	0xbe5fc8d2	-0.2185395
158	0xbf6d18fa	-0.92616236
159	0xbe96ab68	-0.29427648
160	0xbe2823a5	-0.16419847
161	0x3e0b9ae9	0.13633312
162	0xbe12308e	-0.14276335
163	0xbd1504cf	-0.03638154
164	0xbd7b950d	-0.061421443
165	0x3cf22a28	0.029561117
166	0x3de60436	0.11231272
167	0xbc127d1d	-0.008940962
168	0x3dce3146	0.10067992
169	0x3e92799d	0.2860841
170	0x3f7799d0	0.96719074
171	0x3c44de3e	0.012015877
172	0xbd2e204a	-0.042511262
173	0xbe5171e3	-0.204536
174	0x3d811559	0.063029
175	0xbc9aeccd	-0.018911744
176	0x3f0879e1	0.5331097
177	0x3fc6aaaf	1.5520838
178	0x3dcc92a4	0.09988907
179	0x3e9b7c1c	0.30368125
180	0xbde8ecee	-0.11373316
181	0x3e05232d	0.130017
182	0x3e6b531a	0.2298092
183	0xbd929097	-0.071564846
184	0x3dc57853	0.09642091
185	0x3da53b1d	0.080679156
186	0xbe28ace6	-0.16472206
187	0x3e1f85a6	0.15578327
188	0xbd240b81	-0.040050033
189	0xbc936771	-0.01799366
190	0xbe0731df	-0.13202618
191	0x3d985de9	0.07439787
192	0xbf39bdc0	-0.7255516
193	0x3fb152c8	1.3853388
194	0xbf3c303a	-0.7351109
195	0xbf882e9d	-1.0639225
196	0xbedfba4f	-0.4369683
197	0xbf6e21b8	-0.930202
198	0xbf646840	-0.8922157
199	0xbe40fea4	-0.18847138
200	0x3e021cb6	0.12706265
201	0x3ef8b09e	0.48572248
202	0x3fcb7b48	1.5896997
203	0x3e854e69	0.26036385
204	0xbf18a31e	-0.596239
205	0xbf0ee833	-0.5582306
206	0x3e924979	0.2857168
207	0x3f380f70	0.71898556
208	0x3f0870ae	0.53296936
209	0x4020a5e6	2.5101256
210	0x3f2a81c5	0.6660426
211	0x3f8b48dc	1.088161
212	0xbe003e7d	-0.12523837
213	0x3ff3e565	1.9054381
214	0xbfa97d15	-1.3241297
215	0xbea563bb	-0.3230265
216	0xbf483bcf	-0.7821626
217	0xbf1ce8c0	-0.6129265
218	0xbefeaed4	-0.49742758
219	0xbf68339d	-0.90703756
220	0x39091b24	0.00013075449
221	0x3e02ec2c	0.12785405
222	0x3ef80800	0.48443604
223	0xbf8fd286	-1.1236122
224	0xbf8ef52e	-1.1168573
225	0x3fcafa05	1.585755
226	0xbf31af2e	-0.6940793
227	0xbfd677a1	-1.6755258
228	0xbf9cb08f	-1.2241381
229	0x3f7157eb	0.9427478
230	0xbf0a5d1d	-0.5404833
231	0x3f3446f0	0.7042074
232	0x3f0de82d	0.554324
233	0x3d5feda4	0.05466999
234	0x3fb6eec6	1.4291618
235	0xbeb9f3af	-0.36318728
236	0x3da5d7f6	0.08097832
237	0xbf90e12c	-1.1318717
238	0x3d82a45e	0.06379007
239	0xbd3be594	-0.04587324
240	0x3d0ddc5d	0.034633983
241	0x4018a685	2.3851635
242	0xbee1c6c0	-0.44096947
243	0x3f906dd6	1.1283519
244	0xbe893fb2	-0.26806408
245	0xbec09913	-0.37616786
246	0x3e4bb8b4	0.19894677
247	0xbdaf594a	-0.085619524
248	0x3e004ddb	0.125297
249	0x3be80ed9	0.007081848
250	0x3e0b739e	0.13618323
251	0xbf3c4052	-0.73535645
252	0xbf01cc73	-0.5070259
253	0x3e6c83e3	0.23097186
254	0xbe53fcf1	-0.20701958
255	0x3e7cb1e4	0.24677235

encoder.output_layer.bias f4 [20]
0	0xbf117e6a	-0.5683352
1	0xbf9d2205	-1.2276007
2	0xbfe5e1aa	-1.7959492
3	0xbff8e1c1	-1.9443895
4	0xbfd4bcd8	-1.662013
5	0xbf407ec5	-0.75193435
6	0xbfbb10eb	-1.4614538
7	0xbf8bda75	-1.0926043
8	0xc0040e34	-2.063367
9	0xbf6debf6	-0.9293817
10	0xbf8461dc	-1.0342364
11	0xbe8dae06	-0.27671832
12	0xbf81dbf4	-1.0145249
13	0xbfea59dc	-1.8308673
14	0xbf44532a	-0.766894
15	0xbfb4fc62	-1.4139521
16	0xbff7c6b8	-1.9357519
17	0xbfada991	-1.3567373
18	0xbf659fa4	-0.8969672
19	0xbf93f752	-1.1559851

decoder.input_layer.weight f4 [32, 20]
0	0xbe16f876	-0.14743218
1	0x3d48f250	0.049059212
2	0xbeb08084	-0.3447305
3	0xbe003814	-0.12521392
4	0xbe9cf172	-0.30652958
5	0xbd61a7c9	-0.055091653
6	0xbe8a09aa	-0.26960498
7	0x3c0f944b	0.008763383
8	0xbe48443d	-0.19557281
9	0x3d381e95	0.04495104
10	0xbe71bff6	-0.23608384
11	0x3de75be6	0.11296825
12	0x3e1feac5	0.15616901
13	0x3d595791	0.053062025
14	0xbe1e6594	-0.15468436
15	0xbf148e47	-0.580296
16	0xbe7cc8c2	-0.24685958
17	0xbecbea75	-0.39827314
18	0x3d9bbd11	0.07604421
19	0xbe6bec1c	-0.23039287
20	0x3e264ce9	0.16240276
21	0x3f412d5f	0.75459856
22	0x3ed251c1	0.41077998
23	0x3d9cd1c0	0.07657194
24	0xbc074375	-0.008255829
25	0xbd4f82a8	-0.050661713
26	0x3e0699ab	0.13144557
27	0xbd025e24	-0.03182806
28	0x3eb4b096	0.35290974
29	0x3e7416c1	0.23836805
30	0x3e6b215a	0.22961941
31	0x3ca8b707	0.020595087
32	0x3d1c8e1d	0.038221467
33	0x3cf5558d	0.02994802
34	0x3e8c6e8a	0.27428085
35	0x3f0d10fb	0.55104035
36	0x3e1d11de	0.15338847
37	0xbe45e790	-0.19326615
38	0x3e10c3b8	0.14137161
39	0x3c451cdb	0.012030805
40	0xbca0ed5e	-0.019644435
41	0xbde42703	-0.111402534
42	0xbe11b5d1	-0.14229514
43	0xbc6ff463	-0.014645669
44	0x3e5440c4	0.20727831
45	0xbc8ebd0c	-0.017424129
46	0x3da0f992	0.07860102
47	0xbc05a153	-0.0081561385
48	0x3e2baa15	0.167641
49	0x3c22be33	0.009933042
50	0xbe233b85	-0.15940674
51	0xbc6a71fb	-0.014309402
52	0x3df6476b	0.12025341
53	0xbcb15343	-0.021646148
54	0xbb629cf0	-0.0034578405
55	0xbe14609b	-0.14489977
56	0x3c04b7af	0.008100434
57	0xbd56bf48	-0.052428514
58	0xbdbd62a2	-0.09247328
59	0x3c145ef6	0.009055844
60	0x3b51ab62	0.0031993021
61	0x3ef64521	0.48099616
62	0x3ed10fce	0.4083237
63	0x3e34dedd	0.1766314
64	0xbd3130e9	-0.043259535
65	0x3cccb1c5	0.02498711
66	0x3ca9e9ce	0.02074137
67	0x3e6141f9	0.21997823
68	0xbdcb31e8	-0.09921628
69	0xbc110c12	-0.008852975
70	0x3de0ca80	0.10976124
71	0x3d357c6c	0.04430811
72	0x3ba8fbc3	0.0051569655
73	0xbd14352f	-0.036183532
74	0x3d7d34a9	0.0618178
75	0x3ebca790	0.3684659
76	0x3e88575e	0.26629156
77	0xbe4dd0b5	-0.20099147
78	0x3cd79b02	0.02631903
79	0x3ddd0282	0.10791494
80	0xbcaa3967	-0.020779325
81	0x3f1d9b18	0.6156478
82	0x3f20273a	0.62559855
83	0x3da9edc3	0.082973026
84	0x3e6eb980	0.2331295
85	0x3d92f5a3	0.07175758
86	0x3d90d309	0.07071502
87	0xbeb52eba	-0.35387212
88	0xbf824268	-1.0176516
89	0xbd0aa1d0	-0.033845723
90	0x3e1d7f17	0.15380512
91	0x3e14129b	0.14460222
92	0xbe4ecb48	-0.20194733
93	0xbe4c9580	-0.19978905
94	0xbb41f615	-0.002959614
95	0x3ea5642b	0.32302985
96	0x3d660ae2	0.056162722
97	0xbf1f02d6	-0.621137
98	0x3e2b24db	0.16713278
99	0x3ea3736c	0.31923997
100	0x3c6a75e5	0.014310335
101	0xbe527423	-0.20552115
102	0x3e3d17d6	0.18466124
103	0x3d82a389	0.06378848
104	0x3e86542e	0.262361
105	0x3dd16b65	0.10225562
106	0xbdecbb57	-0.1155917
107	0x3e24821e	0.16065261
108	0x3ef0678a	0.46953994
109	0xbe88db85	-0.2672998
110	0xbdf1dfe1	-0.1181028
111	0xbda3c3a1	-0.07996298
112	0xbcb8b83f	-0.022548793
113	0x3db10ee9	0.08645422
114	0x3d32292e	0.043496303
115	0x3dca8446	0.098885104
116	0xbc5bbaa3	-0.013411197
117	0x3ecefa98	0.40425563
118	0x3d3991be	0.045305006
119	0x3dbca831	0.092117675
120	0xbdca40e2	-0.09875657
121	0xbf526013	-0.8217785
122	0xbf32c8cf	-0.6983766
123	0xbe7e4bd0	-0.24833608
124	0x3de3e240	0.11127138
125	0xbceaa98b	-0.028645298
126	0x3e6c2f3a	0.2306489
127	0x3e11f612	0.14254025
128	0x3dc95208	0.09830099
129	0xbd7654e4	-0.06013955
130	0xbf0510e8	-0.5197892
131	0xbdd1f5f2	-0.102519885
132	0xbd451c7c	-0.048122868
133	0x3dd228ee	0.10261713
134	0xbe811c60	-0.2521696
135	0xbf46492a	-0.7745539
136	0xbe14c15c	-0.14526886
137	0x3e90464b	0.2817863
138	0xbe4e4cd5	-0.20146497
139	0xbad89323	-0.0016523342
140	0x3dc22d0a	0.09481247
141	0x3f603dab	0.875941
142	0x3f87b40d	1.0601822
143	0x3e7b2b13	0.2452815
144	0x3e8cd983	0.27509698
145	0x3deeec05	0.11666111
146	0xbccf4454	-0.025301136
147	0xbe25a3f6	-0.16175827
148	0xbf237175	-0.63844997
149	0xbda05332	-0.07828368
150	0x3f30b076	0.6901926
151	0x3e18144b	0.14851491
152	0xbe2f90be	-0.17145059
153	0x3dd67eca	0.10473402
154	0x3e0f22de	0.13978145
155	0x3f24b58d	0.64339525
156	0x3dbc6e27	0.092006974
157	0xbedcc84e	-0.4312157
158	0x3ebf79ce	0.37397617
159	0x3e056825	0.13028009
160	0x3d156540	0.036473513
161	0x3ef4cea5	0.47813907
162	0xbe429526	-0.19002208
163	0xbe0f7055	-0.14007695
164	0xbe878854	-0.26471198
165	0xbdd7a968	-0.105303586
166	0xbe1a22b6	-0.15052304
167	0x3d9cb0f2	0.07650937
168	0x3c8eb5b2	0.017420623
169	0x3e8b9540	0.27262306
170	0x3e96b3d1	0.29434064
171	0x3d371f8f	0.04470783
172	0x3e34796e	0.17624447
173	0x3cf3a77b	0.029742947
174	0x3e3271a7	0.17426167
175	0x3ce05629	0.027384834
176	0x3dd66a17	0.10469454
177	0xbe89d781	-0.2692223
178	0xbd433fc1	-0.047668222
179	0xbe0f1b0e	-0.13975164
180	0x3e00b2aa	0.12568155
181	0x3f15b37d	0.58477
182	0x3dca8ca8	0.09890109
183	0x3d8dda7a	0.06926437
184	0xbd831807	-0.06401067
185	0x3be42772	0.00696271
186	0x3d129da8	0.035794884
187	0xbe53af15	-0.20672257
188	0xbed3d59c	-0.4137391
189	0x3dde823b	0.10864683
190	0x3f1eb411	0.6199351
191	0x3dfe128f	0.124058835
192	0x3d9f6c43	0.07784321
193	0xbe30ebac	-0.17277402
194	0x3e62bfc2	0.22143462
195	0x3ec95112	0.39319664
196	0x3e420406	0.18946847
197	0xbf3d7847	-0.74011654
198	0x3da60977	0.08107274
199	0xbe891467	-0.26773378
200	0xbd8f8e36	-0.070095465
201	0xbe924605	-0.28569046
202	0xbe736a2c	-0.2377097
203	0xbeb89066	-0.36047667
204	0xbeacd7cc	-0.3375839
205	0x3cac3b66	0.021024417
206	0xbea4146e	-0.32046837
207	0x3e1f896b	0.15579765
208	0xbefc01ef	-0.49220225
209	0xbdcdb913	-0.10045066
210	0x3ce06175	0.027390221
211	0x3d072b67	0.033000376
212	0xbda76216	-0.08173005
213	0x3e74f5fa	0.23921958
214	0xbca2d2b0	-0.019875854
215	0xbe812733	-0.2522522
216	0xbf04499a	-0.5167481
217	0xbd98a667	-0.07453614
218	0xbc8b4a80	-0.017003298
219	0xbe3b9d92	-0.18321827
220	0xc023776c	-2.554164
221	0xbeefdf3a	-0.46849996
222	0xbf0f23ee	-0.559142
223	0x3f5d7bcd	0.8651703
224	0x3e6fd105	0.23419578
225	0x3f4906c9	0.7852598
226	0xbf8bf62b	-1.09345
227	0xc01fb245	-2.4952557
228	0xbf0f90d2	-0.56080353
229	0x3eeb5a95	0.45967546
230	0xbf840a1c	-1.0315585
231	0xbfc506da	-1.5392716
232	0xbebef761	-0.3729811
233	0x40370936	2.8599372
234	0xbf92775d	-1.1442677
235	0x3f5beb16	0.8590559
236	0x3fd6a88e	1.6770189
237	0x3c502658	0.012704454
238	0xbf992895	-1.196551
239	0xc0641b35	-3.5641606
240	0x3df741d8	0.120731056
241	0x3e1c6340	0.15272236
242	0x3eecc270	0.46242094
243	0x3ed97799	0.42474058
244	0x3e43af90	0.1910994
245	0x3da9836f	0.08277022
246	0x3d898f72	0.06716813
247	0x3c7a85ed	0.015290719
248	0x3f152ba3	0.5826971
249	0xbe06211c	-0.13098568
250	0x3e6a01d0	0.22852254
251	0xbd6fa334	-0.058505252
252	0x3c9a64bc	0.018846862
253	0xbe162e5a	-0.14666119
254	0x3dfaa76c	0.122389644
255	0x3f0cb5f5	0.54965144

decoder.input_layer.bias f4 [32]
0	0x3c98d4b8	0.01865612
1	0xbd11b854	-0.03557618
2	0x3bb13585	0.0054079914
3	0xbc6daca9	-0.014506497
4	0xbcd1e0e9	-0.02561994
5	0x3bf37e5c	0.0074308347
6	0x3d112039	0.03543112
7	0xbd396a1d	-0.045267213
8	0xbc41305f	-0.011791318
9	0xbcf2d8e7	-0.029644443
10	0x3c88e1ce	0.016709235
11	0xbe0f280d	-0.13980122
12	0xbc8da6b8	-0.017291412
13	0x3d31c429	0.043399964
14	0x3b28fbf7	0.0025784948
15	0x3b4e112b	0.0031443338
16	0xbc1e8f78	-0.00967776
17	0xbece3849	-0.40277317
18	0xbe4e1dd6	-0.20128569
19	0xbc93c8d3	-0.018040096
20	0x3ac5b9b4	0.0015085251
21	0xbe73aa48	-0.23795426
22	0x3c62845b	0.013825501
23	0xbd124046	-0.035705827
24	0x3d4d6192	0.05014188
25	0xbca76a11	-0.020436319
26	0xbad1b36a	-0.0015998904
27	0xbc78b658	-0.015180193
28	0x3d0f4ce7	0.03498545
29	0x3cb32b93	0.021871364
30	0x3d0e6b8f	0.034770545
31	0x3d22a48b	0.0397077

decoder.output_layer.weight f4 [1, 32]
0	0xbc85fa38	-0.016354665
1	0xbb7d7459	-0.0038674085
2	0xbaa573c3	-0.0012623001
3	0x3b0a5b0c	0.0021111397
4	0x3bb01a70	0.0053742453
5	0x3cd5d9a8	0.026104763
6	0xbc729404	-0.0148057975
7	0x3d842ae2	0.06453492
8	0xbccd7e3a	-0.025084604
9	0xbc1771a5	-0.009243404
10	0xbb0e034f	-0.0021669453
11	0x3f6eb2bd	0.9324148
12	0x3d15bd8a	0.03655771
13	0x3cd68af2	0.026189301
14	0x3caf70ba	0.021416057
15	0x3ce29e5f	0.027663408
16	0x3e4488e9	0.19192852
17	0xbeb9433c	-0.36184108
18	0x3ed018b2	0.4064384
19	0xbc3fb73a	-0.011701399
20	0x3c9ec315	0.019380132
21	0xbec76933	-0.38947448
22	0xbd1ff10b	-0.039048236
23	0x3d1a84c5	0.037724275
24	0x3ef4526a	0.47719127
25	0x3c9a8752	0.018863354
26	0x393b99ad	0.00017890958
27	0x3ae7e156	0.0017691057
28	0xbd8fffab	-0.07031187
29	0xbcaae31e	-0.020860251
30	0xbd555326	-0.05208125
31	0xbdb00f60	-0.085966825

functional.input_layer.weight f4 [32, 21]
0	0xbf3d360b	-0.7391059
1	0x3fad715c	1.355022
2	0xc08b260a	-4.3483934
3	0xbfacdcad	-1.3504845
4	0xbe520879	-0.20511045
5	0xbe9af327	-0.30263636
6	0xbfaff1c3	-1.3745655
7	0xbfc5c2d7	-1.5450085
8	0xc0d35a97	-6.6048083
9	0xbe875a75	-0.264362
10	0x3fcbe28e	1.5928514
11	0xbf26a48a	-0.65094817
12	0x3f35a7cd	0.7095917
13	0xbfbd792b	-1.4802603
14	0xbfa088e3	-1.2541775
15	0xbf0ddbd0	-0.5541353
16	0xc0982743	-4.7547927
17	0xbf6aa2be	-0.91654575
18	0xbf37ddbc	-0.71822715
19	0x401f5f84	2.4902048
20	0x3ff68385	1.9258887
21	0x3f4866a4	0.7828162
22	0x403e001e	2.9687572
23	0xc0ca6f61	-6.326096
24	0xbf1e466b	-0.618262
25	0x3f9f3866	1.2439086
26	0xbe1cf7da	-0.15328923
27	0xbf3df3b3	-0.7419998
28	0xbea89f79	-0.32934168
29	0x3e32782e	0.17428657
30	0xbd65c9ca	-0.056100644
31	0xc0712d0d	-3.7683747
32	0xbea87f97	-0.32909843
33	0x3f2021d4	0.6255162
34	0x3fb39cb0	1.4032192
35	0xbf7de853	-0.99182624
36	0xbfe2ebbe	-1.7728193
37	0xbfee40d5	-1.8613535
38	0x3f3c7d7c	0.73628974
39	0xc083a11a	-4.1134157
40	0xc040d122	-3.0127645
41	0xbe850d5e	-0.2598676
42	0xbf3fd579	-0.7493511
43	0xc0a53c82	-5.163636
44	0x3e445cf7	0.19176088
45	0x40481616	3.126348
46	0x40035010	2.0517616
47	0xbe205d90	-0.15660691
48	0xbfeb350c	-1.8375564
49	0xbfaa9031	-1.3325254
50	0xbfafe49f	-1.3741645
51	0x3e066c74	0.13127309
52	0xc0145c32	-2.3181272
53	0x3f10d840	0.5657997
54	0x403088af	2.7583425
55	0x402ab7dd	2.6674721
56	0x3f85a7f9	1.0441886
57	0x3f36dfb7	0.7143511
58	0xbf46308c	-0.77417827
59	0xbfa1395e	-1.2595632
60	0x3fabc64e	1.3419893
61	0x3e4851ac	0.19562405
62	0xbca8943d	-0.020578498
63	0x3d3a1ab1	0.04543561
64	0xc08fe0e5	-4.496203
65	0xbea3d2d4	-0.31996787
66	0x3f8124d2	1.0089362
67	0xbe909190	-0.28236055
68	0xbd0f34c8	-0.034962445
69	0xbfd3d618	-1.6549711
70	0xbf2e0cfe	-0.67988575
71	0x40852a3a	4.1614046
72	0x3e66cb05	0.22538383
73	0xc069ecb4	-3.6550722
74	0x3eba1d4f	0.36350486
75	0x3fca9e27	1.5829514
76	0x40144f9f	2.3173597
77	0x3e9c6fc0	0.30554008
78	0x3e98421f	0.29737946
79	0xbf9cc8ce	-1.2248781
80	0xbfcd53be	-1.6041181
81	0xc0077ad9	-2.116873
82	0x3f16d1e3	0.5891401
83	0xbf9dfcfe	-1.2342832
84	0xbf790e4d	-0.97287446
85	0x3f87615b	1.0576586
86	0xc0e546f1	-7.16491
87	0xbe51b3c7	-0.20478736
88	0x3f3735e5	0.7156661
89	0xbd0e0dc4	-0.034681097
90	0xbeae35cd	-0.34025422
91	0xbf4c8ad8	-0.7989936
92	0xc104bea7	-8.296546
93	0xbe9b37f0	-0.30316114
94	0x40403757	3.0033777
95	0xbdc791d1	-0.09744609
96	0xbf0aeb9c	-0.5426576
97	0x3fc3d84e	1.5300386
98	0xbf869788	-1.0514994
99	0xc0130b70	-2.297573
100	0xc09b526a	-4.8538103
101	0xbf58c2d8	-0.8467231
102	0x40049ece	2.0721927
103	0x3f594d18	0.8488326
104	0x3f9c7f23	1.2226299
105	0x3fb0cb28	1.3811998
106	0xbf8f67a2	-1.1203501
107	0x3f64eb66	0.8942169
108	0x3ed4646a	0.4148286
109	0x40340ae7	2.8131654
110	0x3e96502b	0.29358038
111	0xbfc2d14a	-1.522012
112	0x4044c722	3.074654
113	0xc0244717	-2.566839
114	0x3e77ad7f	0.24187277
115	0x3fd56dea	1.6674168
116	0xbe8c50db	-0.27405438
117	0x40c51f5f	6.1600795
118	0x402b7946	2.679277
119	0x3f42e3a5	0.7612861
120	0x400dd16a	2.2159066
121	0xc0015ab3	-2.0211608
122	0x3f465c44	0.77484536
123	0x40262507	2.59601
124	0x3fdb7255	1.7144266
125	0xbf84f462	-1.038708
126	0x3fb81c6f	1.4383677
127	0x3ef67591	0.4813657
128	0xbff7ea92	-1.936846
129	0xc06fb605	-3.7454846
130	0xbef21475	-0.47281232
131	0xbe4d98a9	-0.20077766
132	0xbfe0d55e	-1.7565114
133	0x3f92e00b	1.1474622
134	0xbc5e6b2f	-0.013575359
135	0x3c8c578e	0.017131593
136	0x3f731e91	0.94968516
137	0xbfb854f0	-1.4400921
138	0x3fc21cff	1.5165099
139	0xbedd643a	-0.4324053
140	0xbfcfc075	-1.6230608
141	0xc085a8a2	-4.176835
142	0xc0e16730	-7.043846
143	0xbf9923c0	-1.1964035
144	0xbfcaf2a8	-1.5855303
145	0xbf7e3305	-0.992966
146	0x3f828f03	1.0199894
147	0x3e5921b2	0.2120426
148	0xc0007e18	-2.0076962
149	0x407585e9	3.8362982
150	0x40182dfa	2.3778062
151	0xbe66c398	-0.2253555
152	0xbed566fb	-0.4168013
153	0x3ef2dfcb	0.47436365
154	0xbe93c429	-0.28860596
155	0x403dcf10	2.965763
156	0x3c877324	0.016534396
157	0xc00f10e5	-2.2354062
158	0x3f78d8b6	0.97205675
159	0xc0206df0	-2.50671
160	0x3fdabdbf	1.7089156
161	0x3fbc6ac5	1.4720083
162	0x3f8c19b4	1.0945344
163	0x4009ac91	2.1511576
164	0xc04fa91a	-3.2446961
165	0x3f64fb1d	0.8944567
166	0x3f2a4bdf	0.6652202
167	0x3f14f963	0.58193034
168	0xbedd3730	-0.43206167
169	0x4086f04b	4.2168326
170	0xbfa7c554	-1.3107095
171	0xbfd73069	-1.6811649
172	0xbee06288	-0.43825173
173	0x3f16d0f6	0.589126
174	0xbef82425	-0.48465076
175	0xbed60746	-0.41802424
176	0xc040c2c2	-3.011887
177	0x3ecfdb96	0.40597218
178	0x4066f638	3.608778
179	0xbfeff442	-1.8746417
180	0x405043d5	3.2541401
181	0xbf5fbc3c	-0.873966
182	0xc001c526	-2.027658
183	0x4010e915	2.2642262
184	0x3fb4a276	1.4112079
185	0xc016c81b	-2.3559635
186	0xbfceab21	-1.6145974
187	0x3fe204cb	1.7657713
188	0x3ea489d3	0.32136402
189	0x3ed04973	0.40681037
190	0x404304df	3.0471723
191	0xc035dd71	-2.8416407
192	0xbeb34eed	-0.35021153
193	0x3ffd2973	1.9778274
194	0x3e145c3f	0.14488314
195	0xbed460b8	-0.4148004
196	0x3f9117f5	1.1335436
197	0xc00f80a6	-2.242227
198	0x3eae12b9	0.3399866
199	0x40285eba	2.6307817
200	0x3e8bd5e1	0.27311614
201	0x3f86a816	1.0520046
202	0xbd31409c	-0.043274507
203	0x3f26ea2b	0.6520106
204	0x4057b895	3.370641
205	0x3ffd55e7	1.979184
206	0xbf3933e3	-0.723448
207	0x40a379c1	5.1086125
208	0x3f4e54e5	0.8059829
209	0x3f370b44	0.71501565
210	0xbd7d2e76	-0.061811887
211	0x3ed5d04c	0.4176048
212	0xbebaaa7d	-0.36458197
213	0x4011a69d	2.2757943
214	0xbf60ed8a	-0.87862456
215	0xbe8a4f2c	-0.27013528
216	0x3fb5e545	1.4210593
217	0xbfabc9b8	-1.3420935
218	0xc07bd43b	-3.9348285
219	0xbec31368	-0.38100743
220	0x402d2924	2.705636
221	0x3f1a8076	0.60352266
222	0xbf9720cb	-1.1806883
223	0x3fab908c	1.3403487
224	0x3f8e768d	1.1129929
225	0x40124408	2.2854023
226	0x3ecfa804	0.40557873
227	0xbffa1cc7	-1.9540032
228	0x3cffd84c	0.031231068
229	0x40129afe	2.29071
230	0xc0f5b8f4	-7.6788273
231	0xbe99fbef	-0.30075023
232	0x408c2ef1	4.38073
233	0xbf24203f	-0.64111704
234	0xbfdd4fcc	-1.7289977
235	0xbecbd667	-0.39812014
236	0x3ee37a3e	0.444292
237	0xbe0a0d00	-0.13481522
238	0xbf6a9c89	-0.91645104
239	0xc03776ea	-2.866633
240	0x3e277627	0.16353665
241	0x406287fe	3.5395503
242	0xbff24a17	-1.892886
243	0x40437416	3.0539603
244	0xbf853897	-1.0407895
245	0xbff4e20b	-1.9131483
246	0x4024e699	2.5765746
247	0x4008830f	2.1329992
248	0xbfe17d7d	-1.7616421
249	0xbffae753	-1.9601845
250	0x3fde57a0	1.7370491
251	0x3ecc5ae5	0.39913097
252	0xbfe48894	-1.785418
253	0xbe4158a9	-0.18881477
254	0x4015e805	2.3422863
255	0x408cf081	4.4043584

functional.input_layer.bias f4 [32]
0	0x3e22a0a0	0.15881586
1	0x3e036d6b	0.12834708
2	0xbca0329b	-0.01955538
3	0xbab53da1	-0.0013827571
4	0x3d8cb696	0.06870763
5	0xbe65b679	-0.22432889
6	0x3de9dc39	0.11418957
7	0x3d14ce79	0.03632972
8	0xbe24226d	-0.16028757
9	0xbe44cc6c	-0.19218606
10	0x3e561855	0.2090772
11	0xbd5ffda4	-0.05468525
12	0x3dabbe9d	0.08385966
13	0xbd1bcf12	-0.038039275
14	0xbd7d5811	-0.061851565
15	0x3e48dc28	0.19615233
16	0xbe4a4a7d	-0.19754978
17	0x3d1106f8	0.035407037
18	0xbe12f86d	-0.1435258
19	0x3ab4bdab	0.0013789436
20	0xbdeec476	-0.11658566
21	0xbe0439c4	-0.12912661
22	0xbec1db72	-0.37862736
23	0xbe2beb8f	-0.16789077
24	0x3d4cc31d	0.049990762
25	0xbe4828a4	-0.19546753
26	0xbd448f08	-0.047987968
27	0xbd068104	-0.032837883
28	0xbdc230a5	-0.094819345
29	0x3e2cdfa5	0.16882189
30	0xbe5f8037	-0.21826254
31	0xbdebfd1a	-0.11522885

functional.hidden_layer_0.weight f4 [32, 32]
0	0x3f3daec0	0.7409477
1	0xbe8141b7	-0.2524545
2	0x3e1b4ed4	0.1516679
3	0xbef61fce	-0.4807114
4	0x3f50f7d6	0.8162817
5	0x3f4301db	0.76174706
6	0x3f1718aa	0.5902201
7	0x3d1f2e81	0.03886271
8	0xbd799d76	-0.060941182
9	0xbf42b60e	-0.76059043
10	0x3fc52350	1.5401402
11	0x3f1d315b	0.61403435
12	0x3fb0e18b	1.381883
13	0xbe3e9a61	-0.18613578
14	0x3ef2b265	0.4740173
15	0x3f9d5584	1.2291722
16	0xbfc22f97	-1.5170773
17	0x3e695a7c	0.22788423
18	0x3ed28ce7	0.41123125
19	0xbf28928b	-0.65848607
20	0x3dd93249	0.10605294
21	0x3eaf8332	0.34279782
22	0x3eb87cbd	0.36032668
23	0x3f9f5939	1.2449104
24	0x3f730231	0.9492522
25	0xbf142b87	-0.5787892
26	0x3f48c055	0.78418475
27	0x3dd319b8	0.1030764
28	0xbf8626e7	-1.0480622
29	0xbe483d78	-0.19554698
30	0x3d12c1b7	0.035829272
31	0x3ea1a89e	0.31573957
32	0xbd1b85eb	-0.03796951
33	0x3fc902ac	1.570394
34	0xbf30e661	-0.6910153
35	0xbd8d572a	-0.06901391
36	0x3f7d990b	0.9906165
37	0xbed5abfd	-0.4173278
38	0x3f25e42b	0.6480128
39	0xbe10150f	-0.14070533
40	0x3ec03ff6	0.37548798
41	0xbf26e050	-0.65186024
42	0xbe821721	-0.2540827
43	0x3ef0aa44	0.47004902
44	0xbf96cb3a	-1.178077
45	0x3f3d7c00	0.74017334
46	0x3e3d820b	0.18506639
47	0xbd8ccdb0	-0.06875169
48	0xbf9a68d1	-1.2063237
49	0x3f0bce59	0.54611737
50	0xbeda19e8	-0.4259789
51	0xbf8cd305	-1.1001898
52	0xbec66972	-0.38752323
53	0x3f0641ef	0.52444357
54	0xbe991245	-0.2989675
55	0xbc484447	-0.01222331
56	0xbf6b8278	-0.91995955
57	0xbdf4eba2	-0.11959006
58	0x3e76b703	0.24093251
59	0xbde0c69f	-0.10975384
60	0xbeec5638	-0.4615953
61	0xbe694ac7	-0.22782432
62	0x3b5cb564	0.0033677453
63	0x3b961eba	0.0045812996
64	0x3f61dd65	0.88228446
65	0xbf45257d	-0.7701033
66	0x3f4e64fe	0.8062285
67	0xbeeec852	-0.46637207
68	0x3fbede8d	1.4911667
69	0x3fc43c6c	1.5330939
70	0x3f5bd094	0.8586514
71	0x3ed9981f	0.42498872
72	0xbe8672e2	-0.26259524
73	0x3f660d88	0.898644
74	0x3f564567	0.8369965
75	0xbbfbddd7	-0.0076863575
76	0xbf223045	-0.63354903
77	0x3dc0bb83	0.09410765
78	0xbf170639	-0.5899387
79	0xbf845291	-1.0337697
80	0x3d34e5c9	0.044164453
81	0xbe8fc92c	-0.2808317
82	0x3f43b77c	0.7645185
83	0x3e11c818	0.14236486
84	0x3c38bd20	0.01127556
85	0xbdc90b26	-0.098165795
86	0x3ddda116	0.1082174
87	0xbc559ffa	-0.01303863
88	0x3e169d6b	0.14708488
89	0x3f943e31	1.1581479
90	0xbd11843a	-0.03552649
91	0x3dba55f7	0.09098428
92	0xbda72fcc	-0.081634134
93	0x3f0d3e34	0.5517304
94	0xbe55632a	-0.2083861
95	0x3e2bcbc2	0.16776946
96	0xbf023720	-0.50865364
97	0x3f89cfe4	1.0766568
98	0x3f4bbcdf	0.7958507
99	0x3e8f7cc3	0.28024873
100	0xbfcc5cc2	-1.5965807
101	0x40127e9f	2.2889783
102	0x3e35b01b	0.1774296
103	0xbd5bbe3b	-0.053648215
104	0xbecfec42	-0.40609938
105	0xbf92f6fa	-1.1481621
106	0xbedf9e7d	-0.43675604
107	0xbe6e8a47	-0.23294936
108	0xbdde92e6	-0.108678624
109	0x3f80a5e7	1.0050629
110	0xbee2e9e7	-0.44319078
111	0xbe324b9a	-0.17411652
112	0xbcbccc05	-0.023046503
113	0xbdf4a68c	-0.11945829
114	0xbfa04f3a	-1.2524178
115	0x3ee5ca6a	0.44880992
116	0xbee33d10	-0.44382524
117	0x3f3acb7c	0.7296674
118	0x3fbc4d72	1.4711134
119	0x3f4eb60a	0.8074652
120	0xbebe1bc0	-0.37130547
121	0xbdce2854	-0.10066286
122	0x3f8847d7	1.0646924
123	0xbe78ff29	-0.24316086
124	0x3d8e578f	0.06950294
125	0xbfab9497	-1.3404721
126	0xbeac17f5	-0.33612028
127	0x3d9feb7a	0.078085855
128	0x3f040b07	0.51579326
129	0xbe808ec1	-0.25108913
130	0x3d74341b	0.059620004
131	0xbdc5d81d	-0.09660361
132	0x3e9bbefe	0.30419153
133	0xbe93fac0	-0.28902245
134	0x3f7e1949	0.9925733
135	0xbf1a22fe	-0.60209644
136	0xbf2ac792	-0.6671077
137	0xbf2bb97d	-0.6707991
138	0xbf14aaa7	-0.58072895
139	0xbf2c140b	-0.67218083
140	0x3d8f2a7b	0.069905244
141	0x3e72290c	0.2364847
142	0xbf782b01	-0.9694062
143	0xbe8b1b82	-0.27169424
144	0xbece0961	-0.4024153
145	0xbeb93e4c	-0.3618034
146	0xbe3915ca	-0.18074718
147	0x3e9a83f9	0.30178812
148	0xbef7b981	-0.48383716
149	0xbeae0e92	-0.3399549
150	0xbde7a264	-0.113102704
151	0x3e3471b2	0.17621496
152	0xbe0be05f	-0.1365981
153	0xbe23773f	-0.15963458
154	0xbd792e7b	-0.060835343
155	0xbf4386d2	-0.76377594
156	0xbe49c75a	-0.19704953
157	0x3e9af46f	0.30264613
158	0xbda7f90a	-0.08201797
159	0xbec8f8d4	-0.3925234
160	0xbeb99dde	-0.36253256
161	0xbe6693d7	-0.22517334
162	0x3e86b19c	0.2630738
163	0x3e1f5f75	0.15563758
164	0x3f33d657	0.7024893
165	0x3f6196e6	0.8812088
166	0xbf4e0c06	-0.80487096
167	0xbd55819b	-0.052125555
168	0xbf174eed	-0.59104806
169	0xbe9b0c59	-0.30282858
170	0x3ee35a51	0.44404843
171	0xbf525d71	-0.8217383
172	0x3f9a2fcd	1.2045838
173	0x3eaaeae3	0.3338233
174	0xbf4f8125	-0.81056434
175	0xbd5ab7e2	-0.05339802
176	0xbf4fec87	-0.8122029
177	0x3d8c7125	0.06857518
178	0xbdc3428a	-0.09534176
179	0x3e81a4d7	0.25321075
180	0x3ff30628	1.8986254
181	0x3f4ca2a8	0.79935694
182	0x3eca327b	0.3949164
183	0x3dea4548	0.114389956
184	0xbf4e7d9d	-0.8066042
185	0xbd584de1	-0.052808646
186	0x3f582653	0.8443348
187	0x3d3a3dd9	0.04546914
188	0xbd99e9cd	-0.07515297
189	0xbe1b230c	-0.15150088
190	0xbe6a1fc3	-0.22863679
191	0xbf021942	-0.5081979
192	0x3eafcc69	0.3433564
193	0x3f82bdb6	1.0214145
194	0xbc0d9937	-0.008642486
195	0x3d2904ba	0.041264273
196	0x3f4d7fc9	0.8027311
197	0xbf2c5ca3	-0.6732885
198	0x3bb57705	0.00553787
199	0xbf6646ad	-0.8995159
200	0x3e87b144	0.2650243
201	0xbfc15a91	-1.5105764
202	0xbe832e90	-0.25621462
203	0x3ed91419	0.42398146
204	0x3f6b140f	0.9182748
205	0x3d660fbc	0.05616735
206	0x3ed54f39	0.41662005
207	0xbdb6aab2	-0.08919276
208	0xbd4bd899	-0.04976711
209	0xbf08c236	-0.5342134
210	0xbe695a4c	-0.22788352
211	0x3eaa1847	0.33221647
212	0x3f4f2b0f	0.8092508
213	0xbe0b0554	-0.13576251
214	0xbd83043d	-0.06397293
215	0x3eb76f82	0.3582726
216	0xbf69087b	-0.91028565
217	0xbfb58ef7	-1.4184254
218	0x3c678bba	0.0141324345
219	0xbfa11fe9	-1.2587863
220	0xbe4c0e09	-0.19927229
221	0x3ed833c7	0.42227003
222	0x3e7d2fb6	0.24725232
223	0xbea1c32c	-0.31594217
224	0x3e3397e4	0.1753841
225	0xbd6bc728	-0.057562977
226	0xbd95395f	-0.07286333
227	0x3dd89a71	0.10576332
228	0x3f9ceca2	1.2259715
229	0xbea135d5	-0.31486383
230	0x3f9c4ff4	1.22119
231	0xbe8d444f	-0.27591178
232	0xbc43d876	-0.011953464
233	0xbe6d349c	-0.231646
234	0xbf127693	-0.5721218
235	0xbdcaf755	-0.09910456
236	0xbfc4176a	-1.5319645
237	0xbe0c8b94	-0.1372512
238	0xbe9740f3	-0.2954174
239	0xbfc28a38	-1.5198431
240	0xbf7831bd	-0.96950895
241	0x3e609262	0.2193084
242	0xbea7c8c1	-0.3277035
243	0xbef6855d	-0.48148623
244	0xbf15cd62	-0.58516514
245	0xbec3cdb3	-0.38242874
246	0xbfc80c09	-1.5628673
247	0xbd944e0c	-0.07241449
248	0xbf9703c4	-1.1798024
249	0x3e046133	0.12927704
250	0x3f51991d	0.8187426
251	0xbf2b67b8	-0.6695514
252	0xbbf1018d	-0.007354921
253	0xbe9559a3	-0.2916995
254	0xbd2e4a46	-0.0425513
255	0xbf766236	-0.9624361

functional.hidden_layer_0.bias f4 [32]
0	0x3dc686c8	0.09693676
1	0xbd553731	-0.052054588
2	0x3b839d83	0.0040165796
3	0x3c4a8957	0.012361846
4	0xbf9597db	-1.1686968
5	0xbcb57437	-0.022150142
6	0xbf05de43	-0.5229227
7	0xbe0f2329	-0.13978256
8	0x3e97e401	0.2966614
9	0xbc0fe93a	-0.008783633
10	0xbf373ab9	-0.7157398
11	0xbd764c90	-0.06013161
12	0x3e804590	0.25053072
13	0x3c260c26	0.010134732
14	0x3d98418b	0.07434376
15	0x3c688f72	0.014194356
16	0xbcb318ea	-0.021862466
17	0x3c9f5144	0.01944793
18	0x3d2072ef	0.03917211
19	0x3c245348	0.010029621
20	0xbd98aa4a	-0.07454355
21	0xbaa6d6f7	-0.001272886
22	0x3dcf684b	0.10127314
23	0xbfb9a66c	-1.4503913
24	0x3ca5a171	0.020218583
25	0x3b025d4f	0.0019892042
26	0x3f5f1b6c	0.8715122
27	0xbd8524b1	-0.06501139
28	0xbd34bc94	-0.044125155
29	0xbdc70679	-0.097180314
30	0x3e48729d	0.19574971
31	0xbd8f07c4	-0.06983903

functional.output_layer.weight f4 [20, 32]
0	0x3e8d8512	0.27640587
1	0x3e0a0793	0.13479452
2	0x3e725dd9	0.23668613
3	0x3eaa404d	0.33252183
4	0x3f21edc3	0.6325342
5	0xbed052f4	-0.40688288
6	0x3e12cacb	0.14335172
7	0x3d404059	0.046936367
8	0xbe720f57	-0.23638664
9	0xbdab1f9d	-0.08355639
10	0x3f0bcbec	0.54608035
11	0x3e398fe6	0.18121299
12	0xbe2bd9c1	-0.16782285
13	0x3d229128	0.039689213
14	0x3d20c85e	0.039253585
15	0x3dac96f6	0.08427231
16	0x3d88567f	0.06657123
17	0x3dca8bb8	0.098899305
18	0x3e8bb468	0.27286077
19	0xbe0a10ad	-0.13482924
20	0x3e6f0faf	0.23345827
21	0xbe452240	-0.19251347
22	0xbcc34f28	-0.023841456
23	0x3f0f0cf1	0.5587912
24	0x3d396a87	0.045267608
25	0xbd676f52	-0.056502648
26	0xbf06b2e1	-0.526167
27	0xbe34b1ca	-0.17645946
28	0x3dfc9f2f	0.12335049
29	0x3e399e4d	0.18126793
30	0xbf2fc88f	-0.68665403
31	0x3f31d3bc	0.69463706
32	0x3fb31234	1.398993
33	0x3f86edb2	1.0541289
34	0xbf25ac0d	-0.64715654
35	0xc00e2a25	-2.2213223
36	0x3f902792	1.1262076
37	0x3f186381	0.5952683
38	0x3f8a1c1a	1.0789826
39	0x3fd4f8f1	1.6638471
40	0xbfac23c3	-1.3448414
41	0xc0218baf	-2.5241506
42	0x3f57b616	0.84262216
43	0x3f50de9e	0.81589687
44	0xbfc83b5f	-1.5643119
45	0xbfa430d4	-1.2827401
46	0xbefb52c4	-0.49086583
47	0xbda89719	-0.082319446
48	0x3f6b5af7	0.91935676
49	0x3f9d1a7d	1.2273709
50	0xbf6c88c6	-0.923962
51	0x3feb0108	1.835969
52	0x3ff434c7	1.9078606
53	0xbf8f4283	-1.1192173
54	0x3f8afb8d	1.0858017
55	0x3f9acd49	1.2093898
56	0xbedf1321	-0.43569282
57	0xbb3e09e4	-0.0028997594
58	0xbf6b0ced	-0.918166
59	0x3f37317a	0.7155987
60	0xbf7d36b0	-0.9891157
61	0x3f4ddff7	0.8041987
62	0x3ef36d3b	0.47544274
63	0x3f0a0577	0.5391459
64	0xbfabbabe	-1.3416364
65	0x3f221a0c	0.63320994
66	0xc006e2f5	-2.1076024
67	0x3fb0374d	1.3766876
68	0x3f97c6fe	1.1857603
69	0xc00b0185	-2.1719677
70	0x3eb2f666	0.34953612
71	0x3e9683c8	0.29397416
72	0xbf039927	-0.51405567
73	0xbfdd6c2c	-1.7298636
74	0x3f3ab8ed	0.72938424
75	0x3f29ddaf	0.6635389
76	0xbf760b43	-0.96110934
77	0x3f40e718	0.7535262
78	0xbfd37152	-1.6518958
79	0xbfbe0eaa	-1.4848225
80	0xbf42696e	-0.7594212
81	0x3f114769	0.5674959
82	0x3e87d3f7	0.26528904
83	0x3fc445e6	1.5333831
84	0x3ff10265	1.8828856
85	0xbecf86e2	-0.40532595
86	0xbfd3a3ce	-1.6534364
87	0x3fa9db62	1.3270075
88	0xbf04b281	-0.51834875
89	0x3f472a63	0.7779905
90	0xbf874dec	-1.0570655
91	0x3f7ef441	0.9959145
92	0x3ed5eb87	0.41781256
93	0x3f5805cd	0.8438385
94	0x3e0494a2	0.12947324
95	0x40052ea6	2.0809722
96	0x3f97bc9d	1.1854435
97	0x3f6fa0f0	0.93604946
98	0x3f02869e	0.5098666
99	0xbf874a9e	-1.0569646
100	0x3f5cc358	0.8623557
101	0x40273210	2.6124306
102	0x3fae0803	1.3596195
103	0x3f2ec7fe	0.68273914
104	0xbfb23f2b	-1.3925527
105	0xbf83c61e	-1.0294836
106	0x3f29f180	0.66384125
107	0x3e88c4c2	0.26712614
108	0xbf9266c4	-1.1437612
109	0xbf54f73c	-0.8318975
110	0x3f4ec582	0.80770123
111	0x3eca7a9d	0.39546672
112	0x3fe38e1b	1.7777742
113	0xbe911cee	-0.28342384
114	0xbe642d3f	-0.22282885
115	0x3d3950f7	0.04524323
116	0x3f6262b2	0.8843185
117	0x3f9308d8	1.1487074
118	0x3f22b56f	0.63558096
119	0x3f383f65	0.7197173
120	0xbdf4618f	-0.1193267
121	0x3e9d7af1	0.3075786
122	0xbf781987	-0.9691395
123	0x3fda9da4	1.7079358
124	0xbf80ddb6	-1.0067661
125	0x3f23fea9	0.64060456
126	0xbe4347c7	-0.1907035
127	0xbf0b084b	-0.5430953
128	0x3fd9c0e9	1.7011997
129	0x3f974b75	1.1819903
130	0xbf9eb451	-1.2398778
131	0xbf58e8fd	-0.8473051
132	0x3f537514	0.8260052
133	0x3f032a0d	0.5123604
134	0x3fb66cd5	1.4251963
135	0xbf2184cd	-0.6309326
136	0xbf95efd5	-1.1713816
137	0xbd367981	-0.04454947
138	0x3f500d62	0.8127042
139	0x3e9c55b5	0.3053414
140	0xbf6e6e99	-0.9313751
141	0xbf48d9f6	-0.7845758
142	0x3fbc10c8	1.4692621
143	0x3fae5529	1.3619739
144	0xc04ba256	-3.1817832
145	0xbfba0ca7	-1.4535111
146	0xc03290bb	-2.7900836
147	0x3faee9eb	1.3665136
148	0xbf475c10	-0.7787485
149	0xbe5de028	-0.2166754
150	0x3eeb29b5	0.45930257
151	0x3f81dbde	1.0145223
152	0x402ccb68	2.699915
153	0xbdf3bc4a	-0.11901148
154	0xbf48a5e7	-0.78378147
155	0xbedc4a83	-0.43025598
156	0xc023a7bb	-2.5571125
157	0xbe973d6d	-0.29539052
158	0xbef05ec8	-0.46947312
159	0xbf22ad54	-0.6354573
160	0x3d6167f9	0.055030797
161	0xbcc63cff	-0.024199007
162	0xbdf4fc89	-0.1196223
163	0x3d97ab4a	0.07405718
164	0x3e56303f	0.20916842
165	0xbc696572	-0.014245378
166	0x3e4def9b	0.20110933
167	0x3d0b5129	0.034012947
168	0xbe3d8fc2	-0.1851187
169	0x3e122bbe	0.14274499
170	0xbc8a1c99	-0.01685934
171	0x3b9757ab	0.004618605
172	0xbe5ed9ec	-0.21762818
173	0xbd01a819	-0.03165445
174	0x3c9cbb75	0.019132355
175	0x3dd93392	0.106055394
176	0xbc9d5613	-0.019206082
177	0xbd73aad7	-0.059489097
178	0x3dd13ae8	0.102163136
179	0xbd3ce16b	-0.046113413
180	0x3d695ead	0.056975055
181	0x3e21b2bd	0.1579084
182	0xbe65658b	-0.22402017
183	0x3e930778	0.28716636
184	0xbd4b1f32	-0.049590297
185	0xbbf19bf2	-0.0073733265
186	0xbdcb4a1d	-0.09926245
187	0x3e3ef461	0.1864791
188	0x3d4871f7	0.04893681
189	0x3d380888	0.04493001
190	0x3eeba216	0.460221
191	0xbe1ef1f9	-0.15521993
192	0xbfd1a251	-1.637766
193	0x4006ebbb	2.1081378
194	0x3f238b6a	0.63884604
195	0xbf85508c	-1.0415206
196	0x3f72b648	0.9480939
197	0x3fa2022e	1.2656915
198	0x3f7eb88b	0.9950034
199	0x4036c718	2.8559017
200	0xbf8cf512	-1.101229
201	0x3f88dde3	1.0692714
202	0x3f737a82	0.9510881
203	0x3f8a7f02	1.082001
204	0xbe7fdb03	-0.2498589
205	0xbf76173b	-0.96129197
206	0xbfcff1a0	-1.6245613
207	0xbde35639	-0.1110043
208	0x3edcc672	0.43120152
209	0x3e9024e6	0.2815315
210	0xbef6f5e0	-0.48234463
211	0x3d8ee0c3	0.06976464
212	0x3f395dd9	0.72408825
213	0xbe6ea64c	-0.23305625
214	0xbea36141	-0.31910136
215	0x3f4ff8ec	0.812392
216	0xbe332d49	-0.17497744
217	0x3e9c5863	0.30536184
218	0xbf6d80cc	-0.92774653
219	0x3f679f14	0.9047711
220	0x3f8982d5	1.0743052
221	0x3eeb0858	0.45904803
222	0xbf70d600	-0.9407654
223	0xbec9bf28	-0.39403653
224	0xc00a6c6a	-2.162867
225	0x3f1fbeea	0.62400687
226	0xbd9090c3	-0.07058861
227	0xbe8942c2	-0.26808745
228	0x3f6c839d	0.92388326
229	0xc0257c91	-2.585728
230	0x3eab921a	0.33509904
231	0x3fbba3d3	1.465937
232	0xbf4d7ee5	-0.8027175
233	0x3f895add	1.0730854
234	0x3f97a0f8	1.1845999
235	0x3f1ae668	0.6050782
236	0xbeeca8e7	-0.46222612
237	0xbe4a85b8	-0.19777572
238	0xbf954102	-1.1660464
239	0xbeba2b13	-0.36360988
240	0x3f8e5bc7	1.1121758
241	0xbf95ebcd	-1.1712586
242	0xbfb7cdcb	-1.4359678
243	0x3f11633b	0.5679204
244	0x3c7b1917	0.015325806
245	0x3fcc03f6	1.5938709
246	0xbfc30780	-1.5236664
247	0x3f842587	1.0323952
248	0xbd997049	-0.0749212
249	0xbfde576b	-1.7370428
250	0xbf899b23	-1.0750469
251	0x3eb0d3be	0.34536546
252	0x3fd3735e	1.6519582
253	0x3fd3f281	1.6558381
254	0xbf50fd8f	-0.816369
255	0x3f75617e	0.95851886

functional.output_layer.bias f4 [20]
0	0xbf7358b3	-0.9505722
1	0xbf999823	-1.1999553
2	0xbfb5a697	-1.4191464
3	0xbf8ac2d1	-1.0840703
4	0xbf5ee984	-0.87075067
5	0xbc3d67ff	-0.011560439
6	0xbf5a4f0c	-0.85276866
7	0xbf52564c	-0.8216293
8	0xbfbc4b89	-1.4710552
9	0xbde0d06a	-0.10977252
10	0xbf873171	-1.0561963
11	0xbf2e8f2f	-0.6818723
12	0xbf357f8b	-0.7089774
13	0xbf6d7e7c	-0.92771125
14	0xbf838221	-1.0274087
15	0xbf6db60b	-0.928559
16	0xc003d7c9	-2.0600455
17	0xbfa1efba	-1.2651284
18	0xbf8cfa25	-1.1013838
19	0xbf7a8b07	-0.9786839
