optogenetic_model_fits/June152023Onwards/DataDriven/savedModels/latentRHS_jupyter2.pt (torch, 17643 bytes, 13 tensors)

encoder.input_layer.weight f4 [32, 39]
000000 61 72 4f 3f 2f 89 24 3f f9 3c d2 3e a1 6e 64 3e
       0.81033903 0.64271826 0.41062143 0.22307827
000010 ab a2 1a 3e 14 cf 20 3e 12 d7 8e bc 2d 50 06 be
       0.15101115 0.15703994 -0.017436538 -0.13116522
000020 f5 d0 52 be 79 f2 ba be a5 16 d6 be f2 99 c3 be
       -0.20587523 -0.36513117 -0.4181415 -0.38203388
000030 0d 31 bd be 2d 15 26 bf c7 1e 54 bf 1e cf 77 bf
       -0.36951485 -0.6487606 -0.8285946 -0.9680041
000040 b1 bb e3 bf db 95 02 c0 04 14 db bd e6 49 34 40
       -1.7791654 -2.0403965 -0.10697177 2.8170104
000050 b3 d4 4f bf 64 c1 0e bf dc 55 41 be 77 47 df 3d
       -0.8118393 -0.5576384 -0.18880409 0.10902303
000060 63 de f6 be 93 30 36 3e a2 79 c1 3e b9 dc 8e 3e
       -0.48216543 0.17791967 0.3778811 0.27902773
000070 f4 7f 5b 3e 63 cc 54 3e 96 4f 19 be 31 1c 32 bf
       0.21435529 0.20781092 -0.14971766 -0.69574267
000080 ef 39 d6 be a6 4c c8 be 2e 2d 34 3f f4 b1 10 be
       -0.41841075 -0.39120978 0.7038144 -0.14130384
000090 cf e7 a9 3d d8 e4 ff be 3a 3c 83 3e b9 66 03 3f
       0.08296167 -0.4997928 0.25631887 0.5132862
0000a0 6d 5f 9f 3e 60 0f 4c 3e 76 03 83 bd d1 f0 da 3a
       0.31127492 0.1992774 -0.063971445 0.0016703849
0000b0 b6 1f 2f be 04 49 54 3c b7 a5 c9 bd 05 ea 96 bb
       -0.1710194 0.012956861 -0.09846061 -0.004605534
0000c0 eb c0 b4 bd 98 b8 8d be ca 42 9b bd 32 96 58 be
       -0.08825859 -0.27679896 -0.075810984 -0.21151045
0000d0 21 21 f0 be 50 1f ba be 75 d6 1a bf b2 36 d0 be
       -0.46900275 -0.36352015 -0.60483485 -0.4066673
0000e0 e1 66 b6 be 0b 75 46 bf db f6 1b bf d1 e8 c5 3e
       -0.35625365 -0.77522343 -0.60923547 0.38654187
0000f0 01 a3 54 3e e6 86 88 3d 97 68 00 3e 10 86 2a bd
       0.20765306 0.06666355 0.12539898 -0.04163176
000100 26 81 a4 3e 37 7f ba 3e e5 0c 51 3e 61 fb 4e 3c
       0.32129782 0.36425182 0.20415075 0.012633176
000110 6c be 0d 3e 4d f6 b9 be ac bb fe bd 8d be 9b be
       0.13842171 -0.36320725 -0.12438139 -0.30418816
000120 ea 21 c1 be 45 e6 c2 3d f6 9b df 3c b6 0a 5f 3d
       -0.37721187 0.09516577 0.027296048 0.054453574
000130 a7 42 ca be b7 6f 7a bc a6 80 0a 3f c5 fb ef be
       -0.39503977 -0.015285424 0.5410255 -0.46871772
000140 37 01 00 bf 81 0f 19 bf bd dc 20 bf aa 21 cc be
       -0.50001854 -0.5978928 -0.6283682 -0.39869434
000150 a4 41 ac bd 09 91 64 be ef 54 91 be 3f ca 4e be
       -0.084109575 -0.22320952 -0.28385112 -0.20194338
000160 bf 76 04 3f 96 1d 6f 3f 8f 52 38 3f ab fd 38 3f
       0.5174369 0.9340452 0.72000974 0.72262067
000170 06 ee f9 3e 4e 5c 88 3f 74 12 c8 3f f2 15 c7 3e
       0.4881441 1.0653169 1.5630631 0.3888393
000180 3d e4 21 c0 57 13 21 bf 62 5a 15 3e 54 1c f0 be
       -2.5295556 -0.62920135 0.1458526 -0.46896613
000190 32 77 0a bf b4 90 cf bd f0 a4 3c bf 75 3d 7d be
       -0.5408813 -0.10135022 -0.73689175 -0.24730475
0001a0 ca 9c c6 be 13 b9 1b 3f ea dc 0a 3f 48 2e 6c bd
       -0.38791496 0.60829276 0.5424334 -0.057661325
0001b0 48 44 38 bf 1b b2 33 3e 95 ad 05 c0 29 c3 d5 3e
       -0.7197919 0.1754841 -2.0887196 0.41750458
0001c0 b0 63 1f c0 35 64 5b c0 61 96 69 c0 c2 4b 3f c0
       -2.4904594 -3.4279912 -3.6498034 -2.988999
0001d0 6d de 5e c0 7b 96 db 3e 35 c4 e3 3e 25 af 43 3e
       -3.4823258 0.42888245 0.44485632 0.19109781
0001e0 b2 bd e2 bd 04 1e 1b 3d 20 0d 7d be 2d 50 2a bf
       -0.11071338 0.037870422 -0.24712038 -0.6652859
0001f0 69 de 21 bf 37 57 00 bf 28 aa dd be d0 5a 2f bf
       -0.63229996 -0.5013308 -0.4329388 -0.68497944
000200 03 57 ec be 5a 7d db bc 60 d2 af bd 63 70 28 be
       -0.46160135 -0.02679317 -0.08585048 -0.16449122
000210 83 02 34 bf b7 56 c2 bf 31 6c a9 bf c7 cf 60 3e
       -0.7031633 -1.5182713 -1.3236142 0.21954261
000220 0a 45 c7 3f 03 0a 26 be 51 51 2e bf f5 ce d7 be
       1.5567944 -0.16214757 -0.6809283 -0.42150083
000230 70 1f b0 3e 5b 39 84 be 7e 93 71 bf a7 45 1a bf
       0.34398985 -0.2582501 -0.9436568 -0.6026253
000240 3b 12 7b bf cd 43 02 bf f9 49 3c c0 bc 40 e2 be
       -0.9807469 -0.50884706 -2.942015 -0.44190013
000250 4c e0 43 be 7c a3 02 c0 90 b2 2a c0 e4 63 91 c0
       -0.19128531 -2.0412283 -2.6671486 -4.5434437
000260 25 4b 75 c0 fa d3 5a c0 03 e2 e2 be 39 a2 62 be
       -3.8327115 -3.419188 -0.44313058 -0.22132196
000270 28 1e 63 bf 5c e6 36 bf dd ec 79 be 40 fe af 3e
       -0.8871789 -0.7144525 -0.24406762 0.34373665
000280 a9 a2 07 3f 44 2c 83 3e 2c bb 24 3d da 38 7e 3e
       0.52982575 0.2561971 0.040217564 0.24826375
000290 36 a1 47 3e 3b 9b bf 3d 90 2b 8d 3e b5 99 47 3e
       0.19495091 0.0935578 0.27572298 0.19492228
0002a0 40 5c ba 3e bf bb 32 bd 11 3c a6 be 55 0e 2e bf
       0.36398506 -0.04363608 -0.32467702 -0.6799062
0002b0 21 04 59 bf 11 80 83 bd c7 5f 7e 3f 3e 8b c2 bc
       -0.84771925 -0.06420911 0.99364895 -0.023748036
0002c0 03 88 a7 3c d3 05 10 3d a2 d7 07 3e 9e 2f 8d bd
       0.020450598 0.035161804 0.13265851 -0.06893848
0002d0 4f b1 1f 3e 08 86 bf 3c ff ff 8b be 99 df 37 3e
       0.15594982 0.02337934 -0.27343747 0.1795639
0002e0 57 5c fb be b3 c4 73 be bc 02 0d 3f 07 33 e5 3d
       -0.49093887 -0.23805504 0.550823 0.11191373
0002f0 9b 7a 13 3f 76 df ca 3d d1 ba be bd c7 ac 2c bf
       0.57608956 0.09905903 -0.09312976 -0.6745114
000300 14 74 22 c0 46 6f 0e c0 65 5f 06 c0 2f 0f da bf
       -2.5383348 -2.2255416 -2.0995724 -1.7035884
000310 36 1c c8 bf 0d b8 a8 bf cc d7 18 bf e1 50 38 3d
       -1.5633609 -1.3181168 -0.5970428 0.044999007
000320 07 1e 5f 3f 6a f9 be 3f 29 ff 0c 3f 50 37 27 bf
       0.87155193 1.4919865 0.55076844 -0.65318775
000330 d6 b4 a3 bf 25 c1 75 bf a0 51 91 bf a4 93 a7 bf
       -1.2789562 -0.9599784 -1.1353035 -1.3091931
000340 0f 25 3c bf 48 c3 9b be 16 63 1a bf e3 f0 b7 bf
       -0.73494047 -0.30422425 -0.60307443 -1.4370388
000350 c8 14 e8 bf 00 6e f8 bf f2 42 24 bf 1d 6f 87 be
       -1.8131342 -1.9408569 -0.6416465 -0.2645196
000360 1e 80 f4 be 25 16 f4 be a7 c6 0d bc c1 7b 03 3e
       -0.47753996 -0.47673145 -0.008653319 0.12840177
000370 9e a6 c1 3d 18 e0 93 3e 39 2b de 3d 11 e6 2c bf
       0.09455608 0.28881907 0.10848088 -0.67538553
000380 26 70 b6 3e 9d bc 67 3f 48 48 4e 3f 37 21 cf be
       0.35632437 0.90522176 0.8057904 -0.40455028
000390 b1 6d 16 bf 49 4a 8e be 02 7c 0f be 48 78 0e 3d
       -0.58761126 -0.2779105 -0.14012149 0.034782678
0003a0 8e 22 e2 bd 64 fb a2 3e 30 b5 0e 3f e6 c9 dd 3e
       -0.11041747 0.3183242 0.5574522 0.433181
0003b0 ef 8e 30 3e eb 3b a3 3d 96 59 ce bd 63 63 01 be
       0.17242025 0.07970413 -0.10075681 -0.1263557
0003c0 02 86 15 be 08 cf 16 be d0 a2 61 be e9 5a 37 be
       -0.14601901 -0.14727414 -0.22034764 -0.17905773
0003d0 94 c2 35 be e1 af 21 be ea b2 8a be 55 19 cd be
       -0.17750007 -0.15789749 -0.27089626 -0.4005839
0003e0 f0 5c e8 be 97 06 2a bf 3a f6 5d bf b2 42 27 bf
       -0.45383406 -0.66416305 -0.86703837 -0.65336144
0003f0 fb eb bc 3e 80 2c 7a 40 1b 6d 1d 3e be 32 55 3d
       0.3689879 3.908966 0.15373652 0.052050345

encoder.input_layer.bias f4 [32]
000000 7d cc 96 3d 63 cb fc 3f 80 56 b7 be 04 21 09 3f
       0.07363222 1.9749569 -0.35808182 0.53566
000010 09 c1 36 3f 8a 4c 2a 40 a0 c2 8b bf 7d 45 59 bf
       0.713883 2.6609216 -1.091877 -0.84871656
000020 a5 95 84 c0 9e ed ea 3e 97 70 00 c0 62 d5 53 3f
       -4.143267 0.45884413 -2.006872 0.8274747
000030 ab 01 43 3e 68 c1 80 bf e9 40 00 c0 fc 4b 44 3f
       0.19043605 -1.0059023 -2.0039618 0.7667844
000040 e2 7a d1 be fd cb de bf 18 7b b0 bf 4b 8c 3b bf
       -0.40914065 -1.7406002 -1.3787565 -0.73260945
000050 79 5c 0b c0 7f 73 d0 bf 39 2b c5 3e 84 63 e7 3f
       -2.177519 -1.6285247 0.3850954 1.8077245
000060 74 c9 54 bf f3 5f 2a 3f 00 8b 39 bf 9f e4 f3 be
       -0.83119893 0.66552657 -0.7247772 -0.47635362
000070 ce a6 36 bf 7c 00 4d 3f 78 af 14 be e3 59 07 bd
       -0.71348274 0.80078864 -0.14520061 -0.033044707

encoder.output_layer.weight f4 [5, 32]
000000 02 3d 21 3f 41 4f 50 bf da aa 27 40 bb f7 a1 40
       0.62983716 -0.8137093 2.619803 5.0614905
000010 b6 99 c0 be fd 08 21 be 14 43 77 bf 7c fd 04 3f
       -0.37617272 -0.15726085 -0.9658673 0.51949286
000020 4e 37 b4 c0 dc e0 7a bf eb af 54 40 4c 1d 9c 3d
       -5.631751 -0.9799936 3.3232372 0.076227754
000030 a0 9d 1d 3f 01 25 27 bf 83 88 ea 3d 06 de 60 40
       0.6156864 -0.6529084 0.11451819 3.5135512
000040 5a 79 cd be 7d ab 6c bf 76 25 ba 40 a5 fb 35 3f
       -0.40131646 -0.9244917 5.817073 0.71087104
000050 12 3f 9b 3e 89 5d 7e bf 1f 19 3b bf dc e4 d3 bf
       0.30321556 -0.99361473 -0.73085207 -1.6554217
000060 14 01 74 bf c9 07 0c be f4 d4 75 3f 8e ee 23 3f
       -0.95314145 -0.13674845 0.96028066 0.6403588
000070 5c 5c c2 3f 5b db c9 3f 85 66 84 3f 59 c1 62 bf
       1.5184436 1.5770067 1.0343786 -0.88576275
000080 6a 31 ca 3f e8 d6 10 3e 2c 3d 8b bf 1a 08 5e c0
       1.579633 0.1414448 -1.0878043 -3.4692445
000090 40 9a 40 3e 5d 48 f9 bd e5 01 a3 3f 20 75 91 bd
       0.18808842 -0.12172005 1.2734953 -0.07102418
0000a0 8d f3 ee 3f c3 2e 64 3f 77 84 e1 3f a8 da be bd
       1.8668076 0.8913385 1.761855 -0.09319049
0000b0 a7 6c 01 40 3f a2 84 be 14 34 a6 3e 19 88 cb 3e
       2.0222566 -0.25905034 0.32461607 0.39752272
0000c0 c4 c9 34 be 14 a6 c6 3d 79 7e ec bf 9b 1a 25 3e
       -0.17655092 0.09699646 -1.8476096 0.1612343
0000d0 01 eb 6d be b0 e2 a7 3e ad ff 98 3e 4f 31 ee 3e
       -0.23234178 0.32790136 0.29882565 0.46521994
0000e0 6d 15 04 3f a7 49 92 be 8d a1 09 3e 9e 4a cf 3e
       0.51595193 -0.28571817 0.13440533 0.40486616
0000f0 c6 80 d8 3f 46 b7 6f bf de 0a 9e bf 3a c1 96 3e
       1.6914299 -0.9363903 -1.2347066 0.29444295
000100 d0 46 67 3d a7 75 6b bd 7c 18 c2 3d 99 29 02 3f
       0.056464016 -0.05748525 0.09477326 0.50844723
000110 5b 9b 41 bc 1c 65 e5 bd cb fa d5 3d a7 4e 96 3c
       -0.011816825 -0.11200926 0.104482256 0.018348051
000120 14 0a 26 be 4e cc 68 3d 72 a2 fb 3e ce ac cd ba
       -0.16214782 0.056835465 0.49147373 -0.0015691759
000130 c5 b9 32 3d 7d 9d 1e 3d 82 23 48 3c 60 e6 d1 3e
       0.043634195 0.03872441 0.012215497 0.40996075
000140 94 23 a1 3e 2e 01 d6 3d 37 9d 6d 3e 7e 2a a8 3d
       0.31472456 0.10449444 0.23204504 0.0821123
000150 70 dc 86 3c 24 45 d0 3f 88 45 20 bd 29 f2 0d be
       0.016462535 1.62711 -0.03912881 -0.13861908
000160 0e b4 60 3e f6 52 60 3d 35 0f b8 bd 3c ce c2 3d
       0.21943685 0.054766618 -0.089872755 0.09511992
000170 04 fe 4d 3f 19 16 49 3f d7 d5 c2 3e 8e 26 a8 bc
       0.8046572 0.78549343 0.38053772 -0.020526197
000180 51 35 07 40 a8 a2 85 bf 24 d5 d4 bf 84 75 b8 3e
       2.1126292 -1.0440264 -1.6627545 0.36027157
000190 72 e5 d9 bf 9e b5 10 c0 07 84 d8 3d d1 f3 6e 3f
       -1.7023146 -2.261085 0.10572057 0.93340784
0001a0 ba 1f 77 40 32 63 cb 3f 9c 87 09 3f 57 54 8d bf
       3.8613114 1.5889647 0.5372255 -1.1041363
0001b0 61 a4 3e 40 39 2c b4 bf a9 35 8d 3f 5b e6 0c be
       2.978783 -1.4075996 1.1032001 -0.13759749
0001c0 25 f4 aa bd f2 f5 5e bf 4d 21 37 41 e2 e1 df bf
       -0.08347348 -0.8709403 11.44563 -1.7490809
0001d0 60 ec 82 3f 9d 69 29 be 6f e4 18 bf e2 69 cf be
       1.0228386 -0.16544195 -0.5972356 -0.4051047
0001e0 b0 f4 9d bf de 2e 16 3f d4 91 e9 3f d5 ae f3 3f
       -1.2340298 0.58665264 1.8247628 1.903773
0001f0 04 c9 22 40 82 3a c3 bf 9a 85 38 c0 a4 91 66 bf
       2.543519 -1.525223 -2.8831544 -0.9006598
000200 06 d2 08 40 11 eb 41 c0 80 76 3b bf e6 e9 a2 40
       2.1378188 -3.0299723 -0.7322769 5.091052
000210 f1 1a 2a bf 60 f0 dd bf e2 aa b5 bf fd 2a a5 bf
       -0.6644736 -1.7338982 -1.4192774 -1.2903744
000220 6f 95 0b 41 0a d4 f3 3e c2 6e 67 3f 98 7c 9f bf
       8.723983 0.4762271 0.9040338 -1.2459898
000230 6a 70 9c 40 4e c4 05 bf 3f 7b 0f c0 dc e2 5c bf
       4.8887224 -0.5225266 -2.2418973 -0.8628366
000240 73 4d d7 bf a5 8a 54 bf 87 43 34 41 6f b4 65 3f
       -1.6820511 -0.83024055 11.266486 0.89728445
000250 a4 83 fc bf 69 d7 2b 40 eb 36 85 3e 45 0b a7 40
       -1.9727674 2.6850226 0.26018462 5.2201257
000260 bb 59 e9 40 00 b0 1b bf 0a ec 1b c0 32 af 2d bf
       7.2922034 -0.6081543 -2.4362817 -0.6784545
000270 6a 1b 44 40 22 34 06 40 f4 3b 36 be 81 ff 77 3f
       3.0641732 2.096932 -0.17796308 0.96874243

encoder.output_layer.bias f4 [5]
000000 10 c3 2a c0 19 42 6d c0 10 a7 37 bf e4 23 83 c0
       -2.6681557 -3.7071593 -0.7173929 -4.098131
000010 40 81 84 c0
       -4.1407776

decoder.input_layer.weight f4 [32, 5]
000000 c8 bb 07 be b4 5b 52 3d 09 9a 3e bf 6f ee 93 3f
       -0.13255227 0.051356986 -0.7445379 1.1557139
000010 25 dd 21 3f 3a b4 56 be a6 50 bf be 5c 17 11 bd
       0.63228065 -0.20967188 -0.37366217 -0.035422668
000020 e4 19 58 be 2d c1 ba 3f 2a 00 db 3e a6 52 2d 3e
       -0.21103626 1.4590203 0.42773563 0.16926059
000030 63 87 2b 3c 79 2e 19 bf 87 c8 47 bf 24 4f 0e 3c
       0.01046929 -0.59836537 -0.78040355 0.008685861
000040 4f f4 05 bf 16 b9 da be 15 e3 7c 3f 2e e7 ab 3f
       -0.5232591 -0.42719334 0.98784 1.3429925
000050 e6 27 26 c0 70 a3 22 3f f5 40 db 3f 29 51 6d bf
       -2.5961852 0.63530636 1.7129198 -0.92701966
000060 dd ec 15 c0 d4 43 c8 3e e8 9c 23 3e b2 ec 52 3c
       -2.342582 0.3911425 0.15977824 0.012873815
000070 cd 1a d6 be a5 1c 76 bf e4 9b 7a 3e a3 52 14 3e
       -0.41817322 -0.9613746 0.2447353 0.14484648
000080 37 10 16 3c 2d 1d 84 bd 11 9d dc be fd 3c 86 3e
       0.009159139 -0.06450877 -0.43088582 0.26218405
000090 4d 3a e7 3d 06 52 8e 3b 09 3b 92 be cd 73 6d be
       0.11290417 0.004343274 -0.28560665 -0.23188706
0000a0 13 9b cc 3e 19 dd 35 3e 61 be 2f 3c 3e 47 d6 be
       0.39962062 0.17760123 0.010726542 -0.41851228
0000b0 9e 79 2f bf 14 ba 49 40 22 85 d9 bf cd 9c 10 c0
       -0.6854495 3.1519823 -1.6993754 -2.2595704
0000c0 be e7 58 be 5f 52 5e 3f 33 c4 79 3e df f2 25 3e
       -0.21182153 0.8684444 0.2439125 0.16205929
0000d0 a5 8e 3b 3c a7 a1 2d 3d 79 1b 07 bf 94 4d 7e be
       0.011447583 0.04239049 -0.52776295 -0.24834281
0000e0 3f 99 72 bd 2b 0e 34 bf 57 7f 9c 3f c8 3e 6d 3f
       -0.059228178 -0.7033412 1.2226361 0.9267392
0000f0 2d 50 ae 3e 02 4e 2b 3e ee 4c 1a 3c 77 06 7f be
       0.34045544 0.16728976 0.0094177555 -0.2490481
000100 bc b5 01 bf 56 18 d4 3b 22 98 12 bf 79 4f c9 be
       -0.5066793 0.0064726276 -0.57263386 -0.39318445
000110 2b ae 5e 3f e4 9b bf 3f 2b f0 ad bd a5 0c 60 bf
       0.8698451 1.4969449 -0.08493074 -0.87519294
000120 55 24 eb bd 5d 04 89 3e df 66 fe 3f a8 be 80 3e
       -0.11481539 0.2676114 1.9875144 0.2514546
000130 33 c4 1b 3e d8 39 12 3c 58 8a aa bc 20 4e c2 be
       0.15211563 0.008924924 -0.02081792 -0.3795023
000140 2c ab 55 be af b1 db bd 1c 41 2b bf 8b 79 9a 3f
       -0.20866078 -0.1072725 -0.66896224 1.2068342
000150 78 79 76 3f 42 59 17 c0 fd c9 9e 3f 62 3b 8d 3f
       0.96279097 -2.3648229 1.2405392 1.1033747
000160 2e ee 0d 3d 83 c5 4a c0 ee a1 06 3c 97 90 53 bd
       0.034650974 -3.1683052 0.008217318 -0.051651563
000170 c8 93 3b bc 84 e7 7f be 63 4a 33 3f ad 33 cc 3e
       -0.011448808 -0.2499066 0.7003538 0.39883175
000180 84 0d 50 3e 8e 47 61 3c 36 38 a3 be 14 66 4e bf
       0.20317656 0.01374997 -0.31878823 -0.8062451
000190 fa 4a ac 3e eb 3b 54 3e f8 a7 7c 3c 0c 91 b0 bc
       0.33650953 0.20725982 0.015420906 -0.021553539
0001a0 d2 35 4b bf ba 2e fa bd 3b c4 95 3d 7f e1 40 bf
       -0.79379 -0.12215944 0.073128186 -0.7534408
0001b0 00 67 97 3f 17 1f 04 3f a4 3b 42 3e e2 e1 e8 3d
       1.1828308 0.5160994 0.18968064 0.11371209
0001c0 5b 86 cc 3b 6e 89 65 bd 19 d1 7e be c4 9f 18 c0
       0.0062416024 -0.056039266 -0.24884452 -2.3847513
0001d0 2d cc 7a 3f e3 38 e1 3f 2b 52 97 bf 58 3e 3c c0
       0.979678 1.7595485 -1.1821951 -2.9413052
0001e0 7a 8a 09 be 0e 2c 2f bd 23 6e 2d bf 65 95 88 3f
       -0.13431731 -0.042766623 -0.6774618 1.0670592
0001f0 dd 17 32 3f 75 3b 1b bd 2d ff 2b bf 01 2a b6 be
       0.6956766 -0.0378985 -0.6718624 -0.3557892
000200 60 95 6c 3f 92 c9 d3 3f e0 0d 2e be 3b 96 a7 3b
       0.9241543 1.6545889 -0.1699748 0.0051143444
000210 b9 49 36 bf 57 12 95 3f 72 aa 27 3f ca f2 2f bf
       -0.7120624 1.1646222 0.65494454 -0.6872984
000220 ba f4 f3 bd 03 7f 5e bf 2b 87 d3 3f 20 2a 5f 3f
       -0.11911912 -0.86912555 1.6525625 0.8717365
000230 ba 89 8e bd 94 ad 6b 3d 94 7b 38 bf a0 f7 87 3f
       -0.06959863 0.057538584 -0.72063565 1.0622444
000240 69 d8 f5 3e 70 e8 62 be 6f 28 a5 3d 1c 4d 4e bf
       0.4801667 -0.2215898 0.08064353 -0.8058641
000250 87 03 70 3f 31 01 10 3c 73 54 3a be af 72 13 3d
       0.9375538 0.008789347 -0.18196277 0.035998043
000260 f0 30 3b bf 5a 9a 96 3f 09 76 13 3f c8 e1 20 3f
       -0.7312155 1.1765854 0.5760198 0.62844515
000270 b1 86 9f 3e cb cc 7b 3c 37 d9 08 bf f0 83 3e bf
       0.3115745 0.015368651 -0.53456444 -0.7442007

decoder.input_layer.bias f4 [32]
000000 e1 39 35 3e 8b 72 42 3c d1 47 93 bb 25 c2 dc 3d
       0.1769786 0.0118681295 -0.004494645 0.10779218
000010 c8 5a d1 be 19 e1 9e bb b8 e3 89 bb db 82 33 bb
       -0.40889573 -0.004848611 -0.0042080544 -0.0027391228
000020 4d 46 9f bb 14 a5 f2 3e 9f a8 a2 bb 90 2d 2f 3e
       -0.0048606754 0.4739157 -0.004963949 0.17107224
000030 84 c8 96 bb 08 ff cc 3d 12 ad 0d 3d 0b 62 8f bb
       -0.00460154 0.10009581 0.03458888 -0.0043757013
000040 f4 8f 26 3e 9b ea 8a be dc d2 35 3b 59 5e bf bb
       0.16265851 -0.27132115 0.002774409 -0.0058401045
000050 f7 43 d2 bb 44 99 32 3e 3a d7 4e bb 9c a8 58 be
       -0.0064167934 0.17441279 -0.003156139 -0.2115807
000060 19 32 28 3e ad 75 bc 3d c5 75 30 3e ee b3 ef 3d
       0.1642536 0.092021324 0.17232426 0.11704241
000070 ba 6f 31 3e d0 05 0b 3e cf dc 32 3e 54 bc 05 bc
       0.17327777 0.13576436 0.17467044 -0.008162577

decoder.output_layer.weight f4 [1, 32]
000000 bb 90 9d bd e6 49 84 bb 69 f2 ec 3a 65 b1 a3 bc
       -0.07693621 -0.0040371297 0.0018077615 -0.01998205
000010 95 81 ab 3e 70 aa 16 3b 74 11 e5 3a 4e aa 4a 3a
       0.334973 0.0022989772 0.0017476515 0.0007731066
000020 37 16 00 3b 76 c9 1d c0 b5 1d 15 3b 15 e3 72 bd
       0.001954449 -2.4654212 0.0022753302 -0.059298594
000030 97 c5 e5 3a 3f bf 98 bc b2 d4 06 bc 55 f9 e9 3a
       0.00175302 -0.01864588 -0.008229421 0.0017850796
000040 df 3e 42 bd 6b f3 b5 3d 35 f7 17 bb fa 77 40 3b
       -0.04742324 0.08884319 -0.0023188118 0.0029368387
000050 6d f2 5f 3b b7 2d b1 bd 1d cd 94 3a 44 32 63 3f
       0.0034171597 -0.086512975 0.0011352632 0.88748574
000060 37 39 47 bd 8a 73 8a bc 75 f4 7a bd 8a f0 8e be
       -0.04863855 -0.016900796 -0.06126829 -0.27917892
000070 80 bd 81 bd e9 ad 13 be 1b 70 97 bd 5b 1b 52 3b
       -0.063349724 -0.1442181 -0.07394429 0.0032059762

functional.input_layer.weight f4 [32, 6]
000000 41 d2 ec c0 e8 b2 0f 40 4f 46 48 bf af 3d e2 3e
       -7.4006658 2.2452946 -0.7823228 0.44187686
000010 96 8b 3a 41 5e d4 8f 3f 2e d2 ef bf c3 28 4e 3a
       11.659079 1.1236684 -1.8736017 0.00078643503
000020 a8 eb a8 bc 80 06 c2 3f 11 85 a6 c0 f9 b3 49 3e
       -0.020620182 1.5158234 -5.2037435 0.1969756
000030 5d 83 bc 3f 82 ec fc bf b2 8a de 3f 4d 63 03 3f
       1.4727589 -1.9759676 1.7386076 0.51323396
000040 65 bb 73 40 37 e1 11 3f 80 c2 bc c0 17 a8 83 c0
       3.8083127 0.56984276 -5.8987427 -4.114269
000050 b8 0b 6b be 40 92 c1 c0 0f 2f d6 c0 b6 ba 67 3e
       -0.22953689 -6.049103 -6.6932445 0.22629818
000060 3b 94 17 c1 40 75 28 40 87 41 9c be a8 24 95 c0
       -9.473689 2.6321564 -0.30518743 -4.6607246
000070 8c 93 b7 40 4a 60 f1 c0 12 b4 17 41 94 bc 0e c0
       5.736761 -7.543004 9.4814625 -2.23026
000080 18 8a 1b 3e 40 07 81 c0 8c 15 9c 3f 03 5b 91 bf
       0.15189397 -4.032135 1.2194076 -1.13559
000090 68 f4 86 c0 b9 6d e8 be dc c6 52 be 80 05 3a c1
       -4.2173347 -0.45396212 -0.20583671 -11.626343
0000a0 d2 f8 ce c0 c7 88 92 3e d0 66 67 40 4f e9 52 3f
       -6.4678736 0.28619978 3.6156502 0.8238725
0000b0 bd b9 a7 bf 7c a5 81 40 cf fc 4c c1 64 b1 4f bf
       -1.3103558 4.0514507 -12.811721 -0.8113005
0000c0 b4 51 e4 40 62 9b 8c 3f 0f 31 0b 3e 2c 3c 1b 41
       7.1349735 1.0984919 0.13592933 9.70219
0000d0 c6 f8 b7 be f4 5d e9 be a4 06 df 3f 0f 92 f7 3f
       -0.35931987 -0.45579493 1.7423902 1.9341449
0000e0 6f fc a4 3d a9 40 25 c1 ed 6b 03 3f b7 a8 50 3e
       0.080559604 -10.328286 0.51336557 0.2037686
0000f0 c0 97 07 41 b0 ed 45 40 45 db ba bd 2e ab 6e c0
       8.474548 3.0926323 -0.091238536 -3.729198
000100 a4 6c 86 be a5 a4 26 be 11 2b 5f c0 ca 70 87 be
       -0.2625476 -0.16273744 -3.4870036 -0.2645324
000110 84 63 71 3f 82 a0 ff 40 91 05 93 40 0b 52 2f 3f
       0.94292474 7.9883432 4.5944295 0.6848456
000120 97 a8 46 c0 8b d9 3d bf cd 7b ba 3c 9e 2b cb 3f
       -3.10404 -0.7416007 0.022764111 1.5872686
000130 f1 c4 f0 c0 f7 2e 06 3e cb 6d 7d bf 9b 46 5e 40
       -7.5240407 0.13103853 -0.98995656 3.4730594
000140 76 bf 0c 3d 46 9d 08 c1 31 12 50 40 1c a3 17 be
       0.03436228 -8.538397 3.2511103 -0.14808315
000150 05 6b 30 41 d5 6e 34 c0 51 62 72 3e 83 15 9a 3f
       11.026128 -2.8192647 0.23670317 1.2037815
000160 a5 c1 54 40 69 d8 aa bf 98 3e 1b c0 fc 2e 9c be
       3.3243191 -1.3347293 -2.4256954 -0.30504596
000170 ec cb 42 bc dd cc a1 3e 26 14 82 c1 b7 ed ab 3d
       -0.011889439 0.3160161 -16.259838 0.0839495
000180 17 b0 1c c1 ae 70 d9 3f 99 d6 1c bf 72 81 e1 c0
       -9.792991 1.6987512 -0.6126495 -7.0470514
000190 f5 54 97 40 ff 8a d6 3f 8c 26 dd c0 50 7a 37 40
       4.7291207 1.6761168 -6.9109554 2.8668404
0001a0 9e f0 85 bf 18 32 eb 3f 27 6d 32 41 be ec 36 3f
       -1.0464056 1.8374662 11.1516485 0.7145499
0001b0 e5 e6 12 41 b7 2f 1c c0 8d ff b9 3e a8 33 81 bf
       9.181371 -2.4404123 0.36327782 -1.0093889
0001c0 03 26 03 3c 68 5f 91 3f e0 a9 60 3f 22 15 9f bf
       0.008004668 1.1357241 0.8775921 -1.2428324
0001d0 24 51 8e bf 8b 14 2a 41 d6 7f 8f c0 45 ab f8 be
       -1.1118512 10.630015 -4.484355 -0.48568168
0001e0 00 b9 68 40 3f 6a 8d 40 d3 ec 10 bf b5 b7 ff c0
       3.6362915 4.4192195 -0.56611365 -7.991175
0001f0 f8 b0 bf 40 1a 90 a4 3f 28 98 c7 40 ec ca 1a c0
       5.9903526 1.2856476 6.2373238 -2.4186354
000200 7b 43 2a bf 7e 8d 99 bf 99 00 a9 3f 21 5c a8 40
       -0.6650922 -1.1996305 1.3203307 5.261246
000210 2d 84 c3 c0 3e ac 33 40 0d 5f bd bf b9 fa 54 40
       -6.1098847 2.8073878 -1.4794632 3.327803
000220 ae fb 0a 41 f0 50 59 3e 71 5e c6 bf d4 c4 a1 3f
       8.686445 0.21222281 -1.5497571 1.2638192
000230 e1 62 22 3d 04 6a 29 c1 b6 88 04 41 37 c2 1f 3f
       0.03964508 -10.588383 8.283377 0.62405723
000240 0e 8a d0 40 6a 3e 69 c0 18 c4 96 3f 20 64 92 c0
       6.5168524 -3.6444345 1.1778593 -4.5747223
000250 a6 7c db c0 a6 6e 1c bf c6 73 68 c0 ce 97 3e 40
       -6.858966 -0.61106336 -3.6320662 2.9780154
000260 4b fd e3 bf 28 81 89 3e 56 ca 91 40 77 c5 8b 3f
       -1.7811674 0.2685635 4.555949 1.0919636
000270 9f 6a 23 c1 e1 63 a1 3f f6 fe 17 3b 8b 59 2e c1
       -10.213531 1.2608606 0.002319274 -10.896861
000280 08 3c d7 3f af aa fe 3f 20 0c 72 bf 86 8d dc bf
       1.6815195 1.9895838 -0.9454975 -1.723069
000290 70 8b df 3d 48 7d 39 bd 88 f2 4d 41 f5 d2 9c bd
       0.109152675 -0.045285493 12.871712 -0.07657424
0002a0 b3 fb 89 3f 7d c1 0c c0 00 7c d5 3f f8 56 f8 c0
       1.0779938 -2.1993096 1.6678467 -7.7606163
0002b0 7f ac 5c be 53 b0 dc 3f f9 51 c8 bf 0f 10 0f 40
       -0.21550177 1.724131 -1.5650016 2.2353551
0002c0 7d e2 5d bd 57 20 9f c0 97 3c 34 c1 e5 a9 83 3e
       -0.054171074 -4.9726977 -11.264792 0.25715557
0002d0 aa 28 4b 3f d2 da 36 3f e9 23 2e 3e 48 1e c2 c0
       0.79358923 0.71427643 0.17005886 -6.0661964
0002e0 83 80 07 41 10 ee 32 be 25 08 f1 40 fd a4 36 c0
       8.468875 -0.17473626 7.532244 -2.85382
0002f0 ee 03 2b 3f b1 6a c0 3c cd a1 29 c1 d9 44 1b c0
       0.6680287 0.023488374 -10.602002 -2.4260771

functional.input_layer.bias f4 [32]
000000 62 b0 29 3e ae bc d0 3b c8 b4 f3 be 06 1e 04 3e
       0.16571191 0.0063701486 -0.47598863 0.12902078
000010 dc 8a 53 3e 54 86 20 bd 54 f9 c3 3d 79 a4 ad 3e
       0.2065844 -0.039190605 0.0956904 0.33914545
000020 1b 5b af bd 68 3b 22 bd 93 c5 33 bd 94 4c 84 be
       -0.08562299 -0.039607435 -0.043889593 -0.25839674
000030 0e 73 1d 3c 7a 44 fc bb 76 61 90 bd 09 28 c1 3c
       0.009609951 -0.0076985927 -0.07049839 0.02357866
000040 b5 99 17 3e 57 6e de 3e d4 1c 26 be b4 f0 96 3e
       0.14804728 0.43443558 -0.16221935 0.29480517
000050 8d c8 36 3d f1 87 ab bc db 72 e5 3e 79 1a ec bc
       0.044624854 -0.020938845 0.4481419 -0.028821217
000060 91 c1 ad be ba 4f f4 3e 50 b8 bc 3b 0f 59 4c bc
       -0.33936742 0.47717077 0.0057592764 -0.012472405
000070 f8 6d 04 bf 2c aa 65 3c 7a c4 20 bd dd 0d f9 bd
       -0.517303 0.014017623 -0.039249875 -0.12160847

functional.hidden_layer_0.weight f4 [32, 32]
000000 ea 10 0f c0 fb cf 2d bf 2e 3c 86 3e fc 80 cc 3d
       -2.2354074 -0.6789548 0.26217788 0.09985539
000010 b7 22 81 c0 26 84 ad 3e aa 82 34 bf f5 89 92 3f
       -4.0354877 0.33889884 -0.7051188 1.1448351
000020 fc 26 51 3e ba 13 32 bf aa 73 c0 3f 7f 37 01 be
       0.20425028 -0.6956135 1.5035298 -0.12618826
000030 e6 c0 b3 be 09 44 8d bf 40 ad 66 3f c2 48 6c be
       -0.35108107 -1.1036388 0.9010811 -0.2307463
000040 11 98 2d bf 67 74 5c bf f4 bb de 3e f4 ff 83 3f
       -0.6781016 -0.86115116 0.43502772 1.0312486
000050 ea 87 94 bf 17 59 ca bf 9e af b4 3f 1b 5c a4 bf
       -1.1603978 -1.5808438 1.4116094 -1.2840608
000060 30 45 bb be 3d 38 80 3f 8b c1 99 bf d9 1d 37 3e
       -0.36576223 1.0017163 -1.201219 0.1788248
000070 1f dc 84 3e 33 10 31 be 38 c6 e7 be 70 73 b1 be
       0.2594919 -0.17291336 -0.45268416 -0.34658384
000080 dd b9 2d be 31 77 54 3e 94 07 ef 3e 01 e9 68 3f
       -0.16965432 0.20748593 0.4668547 0.90980536
000090 0d 6d 4a be 81 e9 06 bf 7b b5 56 be 17 12 d4 3e
       -0.19768162 -0.5270005 -0.20967667 0.4142005
0000a0 ed b6 0c 3f a7 24 d3 be 9d e9 16 3f 91 d7 53 3d
       0.5496662 -0.412389 0.58950216 0.051719252
0000b0 69 31 64 3d 71 9d eb 3c f7 c3 82 3e 9d 3f 98 3b
       0.055711184 0.028761597 0.25540134 0.004646255
0000c0 22 38 81 be 3a f1 43 3e 92 7c 97 be 1c ee 8f be
       -0.25238138 0.1913499 -0.29587227 -0.2811135
0000d0 5e b1 b9 be 0c 91 4d bc a0 a1 ae bd d5 69 08 be
       -0.36268133 -0.012546789 -0.08526921 -0.13321622
0000e0 ea 92 bd bf 1d 35 ff bc e1 e5 1b 3f 25 4e de 3e
       -1.481046 -0.031153256 0.6089764 0.43418995
0000f0 42 63 38 3e 04 be f1 bc f9 a9 46 3d bb 81 50 3f
       0.18006614 -0.029509552 0.048501942 0.81447953
000100 4e fe cb 3e 77 ae c1 be 7f e3 0d 3f d2 97 f1 bf
       0.39842457 -0.3782842 0.55425256 -1.8874457
000110 90 90 03 be 45 a3 63 3f d6 f8 1c 3e e3 69 c4 bf
       -0.12848115 0.88921005 0.15329298 -1.5344814
000120 da 9b df bd f3 6b b6 3e f6 df 55 3f d7 3c a1 3e
       -0.10918398 0.35629234 0.8354486 0.3149173
000130 04 f8 97 be 63 c4 17 3f 2d 99 00 40 69 7c 4f be
       -0.29681408 0.5928404 2.009349 -0.20262302
000140 19 9d c8 bf 5f b4 46 3e 7f ff ae 3f da 8b fa bf
       -1.5672942 0.19404744 1.3671721 -1.9573929
000150 9c ba 7a 3e 89 9c 74 3d fe 04 2e 40 86 0f 80 3e
       0.24485248 0.059719596 2.7190547 0.25011843
000160 51 6c f3 be 92 1b 5a bf af 63 5b bf 06 00 72 3e
       -0.47543576 -0.8519832 -0.8569898 0.23632821
000170 a0 67 b5 bd 55 c2 89 be d5 4b ef 3e a4 f0 37 bf
       -0.088576555 -0.26906076 0.46737543 -0.71851563
000180 7d 63 13 3c 37 b5 b1 3e ce 9e ec 3e fe 11 63 bf
       0.008995888 0.34708568 0.46214908 -0.8869933
000190 e6 d0 2d 40 f8 6f ac bf 6f 84 56 be 22 12 94 be
       2.7158751 -1.347167 -0.20948957 -0.28920084
0001a0 f9 47 2d be 45 d3 5c be 9e f0 c1 bf a5 a3 2b 3f
       -0.16921987 -0.21564968 -1.5151556 0.67046577
0001b0 36 aa 87 3e 6b 86 15 3f 8a 14 ab 3e de a4 81 be
       0.26497048 0.5840823 0.33414108 -0.25321096
0001c0 8a 89 d7 be fd f0 d1 3e 2b b7 e9 3f 06 a6 8b 3f
       -0.4209712 0.41004172 1.8259023 1.0910041
0001d0 a2 5b f3 bf 35 42 3e 40 f5 4a ff 3f 61 89 99 be
       -1.9012339 2.972791 1.994475 -0.29987624
0001e0 74 c1 9e 3e e0 ca d1 bf d6 c5 95 be d1 0a 05 be
       0.31006968 -1.6390038 -0.292525 -0.12992407
0001f0 50 1e 62 be b5 dd 8a 3d eb f9 e1 3e 40 d1 26 3f
       -0.22081876 0.067805685 0.44135985 0.6516304
000200 ea 73 04 bf 11 a3 24 bd 5b 94 7d 3f 10 53 89 bc
       -0.5173937 -0.040194575 0.990545 -0.01676324
000210 5b 69 d3 3f 2f e8 09 bf a4 d3 ab 3e ac ad a8 3f
       1.6516527 -0.5386991 0.33559906 1.3178
000220 8a 0c 4e be 1c e7 51 bf 19 85 a3 3f 28 44 46 3e
       -0.20121971 -0.8199327 1.2774993 0.19361937
000230 e0 47 01 be 7b b8 d5 be 1d dc 6b be f9 83 34 3e
       -0.12625074 -0.4174231 -0.23033185 0.17628469
000240 74 23 ad 3d 70 cd 24 3f 2d 1e df bd d7 71 db 3d
       0.08454028 0.6437597 -0.108944274 0.107150726
000250 2c 90 a6 3f 6b 02 9a 3e cc 2f 9d 3f bb 99 94 be
       1.3012748 0.3007997 1.2280211 -0.29023537
000260 33 18 a7 3f c4 b2 15 40 85 42 94 bd bc e4 09 3f
       1.305426 2.339036 -0.0723925 0.53864646
000270 ef 8f 28 40 4a d4 48 3f fc ae 0a be 98 30 d6 3e
       2.633785 0.7844893 -0.13543314 0.4183395
000280 e0 99 d7 3e 73 3b 60 3c 11 5a ef 3e 4c dc 19 40
       0.42109585 0.013686049 0.46748403 2.4040709
000290 67 2b e6 3f a4 da b0 3e 89 1f be be 13 80 61 bf
       1.7981995 0.3454181 -0.37133434 -0.8808605
0002a0 51 54 97 bb 92 e7 09 3e e2 41 31 3e ae 7f 8a 3e
       -0.0046182056 0.13467243 0.17310289 0.27050537
0002b0 9f 3d ee be 04 75 25 be 35 e1 e2 3d cf 72 18 bf
       -0.46531388 -0.16157919 0.11078111 -0.59550184
0002c0 3d e2 82 3f 39 73 be 3e cc 01 ce be c3 26 b1 bf
       1.0225292 0.37197283 -0.40235746 -1.3839954
0002d0 df 8f 23 3f ee 37 8f be c5 03 48 3f 2d bd 80 3f
       0.63891405 -0.27972358 0.7813075 1.0057732
0002e0 65 e5 68 3e 15 06 94 3e d3 15 82 3f f7 c1 37 3f
       0.22743757 0.2891089 1.016291 0.7178034
0002f0 32 1f 9c 3f c0 e8 6a 3d 8a 49 60 3e dd 8e 3c bf
       1.219702 0.057350874 0.21903053 -0.7365549
000300 4e 1b 1a 3f c1 11 83 bd 51 83 ed 3d 7b d0 51 3e
       0.60197914 -0.06399871 0.11597312 0.20489685
000310 ee 9f f9 bf 82 30 ee be d3 fa 07 bf eb fe 51 bf
       -1.9501932 -0.46521384 -0.531171 -0.820296
000320 5f de 9c 3f 82 a0 4c bf cf bc ab 3e 11 71 0c 3e
       1.2255362 -0.79932415 0.33542487 0.13715006
000330 b1 24 1e 3d e6 4d 17 bf 0c cf 09 bf f2 e1 10 3f
       0.03860921 -0.5910324 -0.53831553 0.56594765
000340 3b 17 1d bf 7b 09 70 3e f4 87 58 bf 34 68 36 bf
       -0.6136357 0.23441117 -0.8458245 -0.7125275
000350 2d f3 5c bf b6 86 ac bf 0e 31 16 40 c3 6a 0c c0
       -0.86308557 -1.347861 2.346744 -2.1940162
000360 34 00 a4 bf 89 43 06 bf 1e 19 52 bf 3e 22 4d 3f
       -1.2812562 -0.524468 -0.82069576 0.80130374
000370 0d ca f0 3e 41 c3 02 3f 9c d8 88 be 5e f7 1c bf
       0.47029153 0.51079184 -0.2672776 -0.6131495
000380 46 4d b0 be 3e 5f 1e 3f 81 e1 53 bf 1f 22 a6 3f
       -0.34433955 0.6186408 -0.82765967 1.2979163
000390 6a c3 9d bf 00 86 16 3e b7 e1 e4 be 49 1c b4 3e
       -1.2325261 0.14699554 -0.44703457 0.3517783
0003a0 e6 1f 0c 3f 00 eb da 3e 52 f0 18 bf 98 b4 4b 3b
       0.54736173 0.42757416 -0.597417 0.0031082984
0003b0 f2 d7 bd 3e 12 e7 4e 3f b3 3e 32 bf 38 28 7f 3d
       0.37078816 0.80821335 -0.6962692 0.062294215
0003c0 52 b8 94 3e 8f 17 8b bd 1f 3e 00 3e 5d ad 85 bf
       0.29046875 -0.06791603 0.12523697 -1.0443531
0003d0 66 e0 78 bf 79 f1 87 bf a0 b7 c6 be 80 fc a1 3e
       -0.97217405 -1.0620567 -0.3881197 0.31637955
0003e0 db 86 10 3f e9 c1 a2 3f ab 5a 8c 3e ba eb 06 3f
       0.56455773 1.2715427 0.27412924 0.5270344
0003f0 4d be b4 be 49 27 a7 bd a2 ef 82 3e 24 0b 8a 3e
       -0.35301438 -0.0816179 0.2557345 0.26961625

functional.hidden_layer_0.bias f4 [32]
000000 69 52 b0 bd 22 bc 78 bd 02 8b a6 bd e4 3a 65 3c
       -0.086094685 -0.060726292 -0.081319824 0.013991091
000010 63 c2 d2 bc 7e 23 24 3c 15 d1 61 be 6b a4 98 bd
       -0.025727456 0.010018228 -0.22052415 -0.07453235
000020 ec cd 51 3e 27 cb 33 3e 09 bc 8d bc 17 a4 26 bd
       0.20488709 0.17557965 -0.017301576 -0.040683832
000030 6e 4f 87 bd 52 46 df bd 78 fc 20 3d 49 13 6c 3c
       -0.06606947 -0.109020844 0.039303273 0.014408895
000040 65 a3 48 3d 12 7f b5 3d a6 78 71 bc 5a ca e0 3f
       0.04898395 0.08862127 -0.0147382375 1.7561753
000050 26 33 b1 3d 17 13 60 3c 95 17 bb bd 90 a1 f3 3c
       0.08652334 0.013676426 -0.09135357 0.029740125
000060 a6 33 c7 bd 8a 33 90 3d 26 e2 09 be eb 7f 4d be
       -0.09726648 0.0704108 -0.13465175 -0.20068328
000070 ed f6 52 3d 90 47 98 3c 51 30 e6 bc e9 34 ea 3d
       0.051505018 0.018588811 -0.028099211 0.11435873

functional.output_layer.weight f4 [5, 32]
000000 05 0c 4e 40 a4 f4 8e bd bc 9d 87 3e 8a da f2 3d
       3.2194836 -0.06980255 0.2648753 0.11858089
000010 c8 51 bd 3e 48 e0 ef bf fd 56 24 3e cf 01 31 3d
       0.36976457 -1.874032 0.16048808 0.043214615
000020 31 0d 0c be df ac 9c be 5c 5c 28 be 4e 33 10 3d
       -0.13676907 -0.3060064 -0.16441482 0.035205178
000030 6c b2 44 3e 65 3a 2f 3e 30 27 bc 3e 47 08 7e 3e
       0.19208688 0.1711212 0.36748648 0.24807845
000040 ec 5b f1 be d9 6a d6 bf 59 ee 0a 3e 49 a9 dd bf
       -0.47140443 -1.6751357 0.13567485 -1.7317287
000050 d9 d1 17 bf 56 f4 20 3e 1a bc 9d 3e cf ab de 3e
       -0.5930458 0.15718207 0.30807573 0.43490455
000060 68 51 8e 3e 44 de 0e bf 10 3f 6a 3e 3a 10 16 3f
       0.27796483 -0.558079 0.22875619 0.5861851
000070 c0 ea b3 3e f5 3c 69 3f dc 58 7b 3e 70 39 8b be
       0.35140038 0.9110864 0.24545616 -0.2719226
000080 a8 93 60 be b5 a7 6b 3b 51 e9 ea be 92 4a 10 3e
       -0.21931326 0.0035958115 -0.4588113 0.14090946
000090 3c 22 43 3f 2d 2e 81 3e 5d f4 cd 3e b6 c6 03 3e
       0.7622411 0.25230542 0.40225497 0.12868771
0000a0 9f 0f 10 3c 9b 73 94 bd 3d 6c bb bd 24 87 61 3e
       0.008792787 -0.072486125 -0.09151504 0.22024208
0000b0 d2 96 34 3d e2 7a b0 3d e1 96 82 be 2f 02 7b be
       0.044089146 0.08617188 -0.25505736 -0.24512552
0000c0 41 42 37 3e be cf 92 bf 4b 91 dc bd fe 5b e9 bf
       0.17896368 -1.1469648 -0.107699 -1.8231199
0000d0 65 90 0a 3e 8d dd dd 3d 5e 77 95 3e 61 88 08 bf
       0.13531645 0.10833273 0.29192632 -0.533331
0000e0 6a 34 92 3d d5 7a a6 be b3 06 bc bc a9 a4 ab 3e
       0.071389034 -0.32515588 -0.022952413 0.33524063
0000f0 62 d6 b6 bd 53 98 e5 be 99 eb 03 3d 33 0e 32 3e
       -0.08927609 -0.44842777 0.032207105 0.17388229
000100 e2 f7 e2 bd 9f 84 1e 3c 76 bd 07 bd ef f0 4e 3c
       -0.11082436 0.009675174 -0.03313967 0.012630685
000110 ce e4 2d bc bd a5 13 3e 8f 08 53 3d d4 05 e5 bb
       -0.010613633 0.14418693 0.051521834 -0.00698922
000120 0f 15 88 bd 53 7f ae bc c7 b4 88 3c f0 8c 1a bc
       -0.066446416 -0.021300947 0.016687764 -0.009433016
000130 f6 5b 21 3b 9c 88 ad bc b8 31 1d bd 34 77 40 bc
       0.0024621463 -0.021183304 -0.038377494 -0.01174717
000140 9d 1a 91 3c 2e 74 ba 3e 40 4b 4f bc ad 63 b5 be
       0.017712886 0.36416763 -0.012652218 -0.3542761
000150 8f 60 ac bb 06 8b 7c bc d4 7c 2e 3c 2e ee 2d bd
       -0.005260534 -0.015414005 0.0106498785 -0.042463474
000160 46 6b cb 3c a7 83 16 bc d8 62 18 3d 8f 32 9b 3d
       0.024831425 -0.009186662 0.03720364 0.07578003
000170 33 07 fd 3a a9 0c 17 bd ee 28 be 3c 65 bc 7d 3c
       0.0019304514 -0.036877308 0.023212876 0.015486811
000180 65 c3 c9 3f 81 2d 46 3d 47 b7 bf bf 71 5f 6f 3e
       1.5762755 0.04838324 -1.4977807 0.23376252
000190 db 90 1f c0 0e da f6 bf ee a1 b3 3f 47 06 f9 3e
       -2.4932163 -1.9285295 1.4033792 0.48637602
0001a0 65 05 20 3f 4c c4 0e 3f 62 ac 1e be c2 9f 85 3f
       0.6250823 0.55768275 -0.15495446 1.0439379
0001b0 22 1a 5d be c7 8b a0 3e fa 61 75 bf ce fb 8e bf
       -0.21592 0.31356642 -0.95852625 -1.1170595
0001c0 64 98 c3 3f 6f 2d db bf 3a e7 ef be ec e9 0e c0
       1.5280881 -1.712324 -0.468561 -2.2330275
0001d0 86 f1 1d 40 f9 e5 29 3e 11 f0 43 3e 6b 5c 31 3e
       2.4678664 0.16591634 0.19134547 0.17320411
0001e0 0c e1 03 bf 43 05 02 3e 37 33 8f bf e3 49 88 3f
       -0.5151527 0.1269732 -1.1187505 1.0647548
0001f0 dc 25 a0 bf d6 38 a6 bd 5d 32 a7 bf 3c e0 38 be
       -1.2511554 -0.08116309 -1.3062245 -0.18054289
000200 b1 54 cc 3f f5 70 54 bb 38 3e d6 3f 2a f2 8d be
       1.5963346 -0.003241596 1.6737738 -0.2772382
000210 81 28 71 c0 bf 92 02 3e 4c 04 60 3e e0 a2 3a bf
       -3.7680972 0.12751292 0.21876639 -0.7290478
000220 79 4d 8b be bf 18 06 be 5f 77 b4 3e 30 44 77 bf
       -0.27207544 -0.13095377 0.35247323 -0.9658842
000230 6a 6e 17 3d 28 98 2b bf 88 98 6e 3f 7a a6 a0 3e
       0.036970533 -0.67029047 0.93201494 0.31377012
000240 40 31 53 bf 3f c9 04 be c8 3c 1f 3f 16 33 46 c0
       -0.82497025 -0.12967394 0.6220212 -3.096868
000250 a2 95 90 bf a9 90 10 bf a7 61 40 bf 6c 87 b7 3e
       -1.1295664 -0.56470734 -0.75149006 0.35845506
000260 bc dc 99 3e cc 5c 86 3f b3 bd 68 3f 01 c8 b6 bf
       0.3005122 1.0497069 0.9091446 -1.4279786
000270 07 64 e8 3f 04 cf 51 40 09 d2 ad be 92 be 04 bf
       1.8155526 3.2782602 -0.33949307 -0.5185329

functional.output_layer.bias f4 [5]
000000 e0 91 38 c0 c6 66 be bf 82 e1 44 be ab 28 2f c0
       -2.8839035 -1.4875114 -0.1922665 -2.7368572
000010 45 d8 46 c0
       -3.10695
