optogenetic_model_fits/June152023Onwards/DataDriven/savedModels/latentRHS.pt (torch, 8987 bytes, 13 tensors)

encoder.input_layer.weight f4 [16, 27]
-0.028878793 -0.062287442 -0.10132568 -0.09404169 -0.1469957 -0.16508947 -0.067578144 0.015594526
0.067874596 -0.03001872 -0.116170235 -0.3098332 -0.29775235 -0.18535654 -0.02015944 -0.32557917
-1.4541279 -1.162171 -1.5498906 -1.3831042 -0.9824539 -1.4801141 -1.5122573 -0.41082045
0.05483983 -1.0069706 -1.6142435 -1.4880705 -0.89557976 -0.80241936 -0.8091928 -0.70265883
-0.67769754 -0.72224915 -0.6999226 -0.54937094 -0.27535066 -0.006308061 0.18966445 -0.07762
-0.8712141 0.4160823 0.2016213 0.4620165 0.025164219 -0.09562608 -0.08240364 -0.0030390366
0.11676395 0.11978902 -0.18534335 -0.1980136 -0.066356786 -0.34833634 0.0019430016 -0.008941697
-0.020800436 0.02852886 0.07512506 0.12106041 0.11253945 -0.031168345 -0.11560396 -0.019688644
0.16192329 0.26774734 0.30909362 -0.03327252 -0.10363804 -0.30315074 -0.28274053 -0.35550267
-0.86201555 -0.64964765 -1.01274 -0.8786419 -0.47914782 -0.05807561 0.024537649 -0.30739596
0.37602264 0.79848325 0.4940797 0.31005454 0.17739563 0.1099783 0.0071165627 -0.14092587
-0.19711629 -0.26006076 -0.3795515 -0.44452968 -0.47510353 -0.5936191 -0.6842152 -1.1470323
-0.7878302 -0.36548993 -0.44036293 -0.3534042 -0.42488647 0.21122612 -0.3893744 -0.50094897
-0.42336437 -0.40262336 -0.71035886 -1.5596113 0.30433378 0.18579468 0.14134432 0.073849075
-0.12808125 -0.28567538 -0.47489476 -0.62403303 -0.7163963 -0.82663846 -0.8335497 -0.7371577
-0.6182733 -0.71452165 -2.9774442 -3.347528 -2.1004434 -2.3423162 -1.0601444 -0.37018335
0.37385017 -0.019512769 -0.106605135 -0.2575098 -0.47936174 -0.5985672 -0.7768285 -0.08042178
-0.054997317 -0.017601926 -0.014797975 -0.024168223 -0.03510942 -0.041695658 -0.050214566 -0.051950682
-0.10647209 -0.1407362 -0.045534927 0.25358766 0.69017774 0.16944836 0.09056088 -0.10497143
-0.07818357 -0.14966092 -0.06299332 -0.031667206 -0.036876168 0.06247719 -0.042604268 0.052107964
-0.01609245 -0.42339024 -0.4646724 -0.45488638 -0.46266916 -0.4879858 -0.4546064 -0.44321865
-0.41622692 -0.37071514 -0.32086506 -0.26324913 -0.24322309 -0.23638605 -0.3334948 -0.43506435
-0.26214665 -0.30932546 -0.4559178 -0.45615074 -0.25602868 -0.34134203 -0.33428708 -0.4078217
-0.34872913 -0.23280121 -0.18759097 -0.28223988 -0.55200183 -0.12774445 -0.114221394 -0.06528308
-0.009174248 0.0073559107 -0.009437405 -0.011233099 -0.02028255 -0.0381118 0.026659219 0.08935675
0.10033018 0.15185137 0.31448784 0.05790102 -0.010921739 -0.0024686293 -0.20862453 -0.30505702
-0.2654811 -0.29987973 0.025677986 0.012677577 0.04284297 0.08244038 0.34404352 0.40095368
0.075447924 0.06792256 0.02278239 0.0038125115 0.023825148 0.054926183 0.051347718 0.03925299
0.029408203 0.044295844 0.07307768 0.043079104 -0.21400958 -0.7328262 0.09654629 0.05551233
-0.017136905 -0.006836589 -0.0054671518 -0.018564388 -0.06814778 -0.066282235 -0.027595783 -0.038611118
-0.02220321 -0.012171608 -0.0452477 0.046938736 0.11679357 0.11738572 0.092437215 0.09906929
0.10245747 0.076384954 0.05845754 0.035628542 -0.04299151 -0.11817192 -0.15649943 -0.28769428
00000000: 3893 ecbc 1e21 7fbd d783 cfbd ee98 c0bd
00000010: 0a86 16be 370d 29be 6966 8abd 2f80 7f3c
00000020: d601 8b3d d2e9 f5bc a9ea edbd 75a2 9ebe
00000030: ff72 98be 1bce 3dbe 6925 a5bc 50b2 a6be
00000040: dd20 babf 05c2 94bf d162 c6bf 8f09 b1bf
00000050: 1982 7bbf 6174 bdbf a691 c1bf 0f57 d2be
00000060: bb9f 603d 6ae4 80bf 889f cebf 1879 bebf
00000070: b744 65bf 5b6b 4dbf 4227 4fbf 73e1 33bf
00000080: 967d 2dbf 52e5 38bf 212e 33bf 93a3 0cbf
00000090: c3fa 8cbe dab3 cebb 6637 423e 3cf7 9ebd
000000a0: e307 5fbf bd08 d53e d075 4e3e 6d8d ec3e
000000b0: 3125 ce3c 9bd7 c3bd 3dc3 a8bd 932a 47bb
000000c0: f021 ef3d f253 f53d a6ca 3dbe 14c4 4abe
000000d0: 11e6 87bd 2459 b2be 51ac fe3a 3280 12bc
000000e0: ad65 aabc 5bb5 e93c 2bdb 993d 85ee f73d
000000f0: 157b e63d c254 ffbc c5c1 ecbd 144a a1bc
00000100: 38cf 253e 2e16 893e 8541 9e3e c448 08bd
00000110: 2e40 d4bd 9336 9bbe 5ec3 90be 7204 b6be
00000120: 0dad 5cbf 4f4f 26bf 77a1 81bf adee 60bf
00000130: dd52 f5be b1e0 6dbd 2e03 c93c 0163 9dbe
00000140: 0a86 c03e 6669 4c3f 04f8 fc3e 78bf 9e3e
00000150: 33a7 353e 4e3c e13d 0e32 e93b df4e 10be
00000160: dad8 49be af26 85be 9354 c2be 6599 e3be
00000170: c540 f3be 6cf7 17bf ba28 2fbf f4d1 92bf
00000180: 3daf 49bf 7f21 bbbe 4077 e1be 65f1 b4be
00000190: b88a d9be a94b 583e 155c c7be 313e 00bf
000001a0: 37c3 d8be a624 cebe 14da 35bf 58a1 c7bf
000001b0: a3d1 9b3e f640 3e3e 91bc 103e 2f3e 973d
000001c0: bb27 03be 0b44 92be 6825 f3be a1c0 1fbf
000001d0: bf65 37bf 949e 53bf 8363 55bf 5eb6 3cbf
000001e0: 2947 1ebf e4ea 36bf 728e 3ec0 e63d 56c0
000001f0: aa6d 06c0 82e8 15c0 d0b2 87bf ac88 bdbe
00000200: 4a69 bf3e 3ed9 9fbc cb53 dabd 53d8 83be
00000210: e76e f5be b33b 19bf 3cde 46bf 2db4 a4bd
00000220: de44 61bd ea31 90bc 3573 72bc 70fc c5bc
00000230: e5ce 0fbd 11c9 2abd caad 4dbd 3dca 54bd
00000240: 0a0e dabd 271d 10be d582 3abd 3ed6 813e
00000250: 7daf 303f df83 2d3e fc77 b93d 43fb d6bd
00000260: b51e a0bd b640 19be a402 81bd 79b5 01bd
00000270: 770b 17bd 15e8 7f3d d081 2ebd 296f 553d
00000280: 50d4 83bc 9bc6 d8be 8ae9 edbe dee6 e8be
00000290: f9e2 ecbe 46d9 f9be 2cc2 e8be 8eed e2be
000002a0: b21b d5be 60ce bdbe 6d48 a4be 97c8 86be
000002b0: 790f 79be 2f0f 72be d5bf aabe c1c0 debe
000002c0: 1638 86be e85f 9ebe 0f6e e9be 978c e9be
000002d0: 3116 83be 62c4 aebe ad27 abbe 02ce d0be
000002e0: a08c b2be 7163 6ebe d917 40be bf81 90be
000002f0: fe4f 0dbf 71cf 02be e8ec e9bd 23b3 85bd
00000300: 964f 16bc da09 f13b 589f 1abc 080b 38bc
00000310: 9727 a6bc 1e1b 1cbd 6f64 da3c ac00 b73d
00000320: e979 cd3d ed7e 1b3e 8d04 a13e 9f29 6d3d
00000330: 18f1 32bc bac8 21bb aba1 55be 6f30 9cbe
00000340: 24ed 87be d689 99be a45a d23c 9db5 4f3c
00000350: 1c7c 2f3d 80d6 a83d 7926 b03e cd49 cd3e
00000360: 7184 9a3d fc1a 8b3d 22a2 ba3c 54db 793b
00000370: f52c c33c 47fa 603d fc51 523d bec7 203d
00000380: 79e9 f03c 8f6f 353d c0a9 953d b773 303d
00000390: 5425 5bbe 7f9a 3bbf 10ba c53d e660 633d
000003a0: b262 8cbc 7705 e0bb cb25 b3bb 5814 98bc
000003b0: 1091 8bbd fbbe 87bd 8d10 e2bc b126 1ebd
000003c0: 82e3 b5bc 6d6b 47bc a755 39bd d542 403d
000003d0: 7831 ef3d ed67 f03d b94f bd3d d7e4 ca3d
000003e0: 39d5 d13d b76f 9c3d 2c71 6f3d 3cef 113d
000003f0: de17 30bd 1f04 f2bd 6341 20be aa4c 93be

encoder.input_layer.bias f4 [16]
0.09324512 -1.0019388 -0.3703911 -0.29362294 0.39172152 -0.15472241 -0.068104215 -0.1256483
0.2983926 0.12495734 -0.13076712 0.12216834 -0.027688405 -0.36072275 -0.73440444 0.051866893
00000000: 4cf7 be3d 883f 80bf e7a3 bdbe bf55 96be
00000010: b98f c83e 8d6f 1ebe 397a 8bbd f3a9 00be
00000020: eac6 983e a2e9 ff3d d1e7 05be 6533 fa3d
00000030: cbd2 e2bc a7b0 b8be ee01 3cbf 6172 543d

encoder.output_layer.weight f4 [3, 16]
-0.27360812 0.48209324 -0.31453642 -0.059583653 0.23205584 0.27693963 -0.058080453 -0.006614021
-0.46785745 -0.10682907 0.34313262 -0.23649947 0.015859464 0.44386008 0.22897597 -0.07822238
-0.100979514 0.097514145 -0.12676956 -0.34235668 -0.20707032 0.03609803 0.017386133 -0.08069347
-0.04029726 0.10679658 -0.017532315 0.3340437 0.19106093 -0.021473361 0.22208644 0.1327399
0.4850158 0.21028242 0.3811095 -0.07646792 -0.4124878 0.26329938 0.17870249 0.019554028
-0.23395401 -0.19872357 -0.18471944 0.28513986 0.11578542 0.30362672 0.22042598 0.28126836
00000000: 5d16 8cbe edd4 f63e eb0a a1be fd0d 74bd
00000010: 0ca0 6d3e 08cb 8d3e c5e5 6dbd 6eba d8bb
00000020: 038b efbe 33c9 dabd 14af af3e eb2c 72be
00000030: b5eb 813c a141 e33e ad78 6a3e 0e33 a0bd
00000040: 59ce cebd 7fb5 c73d e1cf 01be 6049 afbe
00000050: 3e0a 54be 87db 133d 5d6d 8e3c 9e42 a5bd
00000060: bd0e 25bd 2ab8 da3d ee9f 8fbc c707 ab3e
00000070: 7aa5 433e e7e8 afbc a16a 633e f8ec 073e
00000080: fe53 f83e 4654 573e c920 c33e 369b 9cbd
00000090: 9a31 d3be 2dcf 863e c9fd 363e c52f a03c
000000a0: a491 6fbe 317e 4bbe 1827 3dbe dafd 913e
000000b0: e820 ed3d f674 9b3e 59b7 613e 6802 903e

encoder.output_layer.bias f4 [3]
-0.06430266 -0.08456417 -0.15518674
00000000: 1db1 83bd fb2f adbd 46e9 1ebe

decoder.input_layer.weight f4 [16, 3]
0.6113386 -0.02725092 0.45881408 0.61124223 -0.027260289 0.45877546 0.6113181 -0.02726371
0.4588143 0.6432098 0.016597519 0.4687104 0.61143804 -0.027252913 0.45886368 -0.39842877
0.27125815 -0.15479392 -0.3984179 0.27124545 -0.15476708 0.6110908 -0.027261712 0.45869663
-0.3983058 0.27106813 -0.15433234 -0.39843398 0.27126226 -0.15480004 0.6113271 -0.027220825
0.45879114 0.6113391 -0.027252354 0.45881674 -0.3984153 0.27124113 -0.15475114 -0.39843428
0.27126494 -0.1548052 0.6114163 -0.027256018 0.45885554 -0.3983369 0.27126342 -0.1551684
00000000: b080 1c3f 523d dfbc aee9 ea3e 5f7a 1c3f
00000010: f850 dfbc 9ee4 ea3e 587f 1c3f 2558 dfbc
00000020: b5e9 ea3e 66a9 243f 85f7 873c cffa ef3e
00000030: 3487 1c3f 8041 dfbc 2ef0 ea3e dbfe cbbe
00000040: 59e2 8a3e 4c82 1ebe 6efd cbbe afe0 8a3e
00000050: 437b 1ebe 7270 1c3f f453 dfbc 49da ea3e
00000060: bdee cbbe 71c9 8a3e 4c09 1ebe 8aff cbbe
00000070: e3e2 8a3e e783 1ebe ef7f 1c3f 35fe debc
00000080: ace6 ea3e b880 1c3f 5440 dfbc 07ea ea3e
00000090: 17fd cbbe 1ee0 8a3e 1577 1ebe 94ff cbbe
000000a0: 3de3 8a3e 4185 1ebe c785 1c3f 0348 dfbc
000000b0: 1def ea3e d0f2 cbbe 0ae3 8a3e 77e4 1ebe

decoder.input_layer.bias f4 [16]
-0.031387024 -0.031430386 -0.031394433 -0.044332173 -0.031339448 0.29386443 0.29382947 -0.031500913
0.29336405 0.2938733 -0.031385142 -0.03138085 0.29381254 0.2938758 -0.031350356 0.29406473
00000000: ae8f 00bd 26bd 00bd 7397 00bd a795 35bd
00000010: cb5d 00bd 6675 963e d170 963e 1a07 01bd
00000020: d033 963e 9076 963e b58d 00bd 3589 00bd
00000030: 996e 963e e476 963e 3b69 00bd a78f 963e

decoder.output_layer.weight f4 [1, 16]
0.5691301 0.569284 0.56916404 0.6022711 0.5689707 -1.1694565 -1.1695813 0.5695203
-1.1713841 -1.1694354 0.56917965 0.56913185 -1.1696475 -1.1694372 0.56900555 -1.1688495
00000000: 83b2 113f 99bc 113f bcb4 113f 702e 1a3f
00000010: 10a8 113f c0b0 95bf d7b4 95bf 15cc 113f
00000020: eaef 95bf 0fb0 95bf c2b5 113f a0b2 113f
00000030: 02b7 95bf 1eb0 95bf 59aa 113f dc9c 95bf

functional.input_layer.weight f4 [16, 4]
-0.17315866 0.2085365 -0.1516166 0.43234947 0.17563327 -0.21635786 -0.001196771 -0.055979103
0.17649193 -0.21581842 -0.007886684 -0.0503859 -0.20725758 0.2158562 0.1267602 -0.114635475
-0.20126474 0.21379869 0.13848448 -0.21163467 -0.039145056 0.14781068 -0.33653137 0.7613155
0.09269234 0.07916288 -0.4253337 0.6674121 -0.23442893 0.23195744 0.07047232 0.14029874
0.07516683 -0.08146655 0.27160582 -0.43455034 0.17569368 -0.21733432 0.006689139 -0.06301965
-0.17980492 0.21992524 0.18609357 -0.72558254 -0.22031745 0.22453196 0.12677711 -0.1471548
0.17819525 -0.2149092 -0.017934566 -0.04420856 -0.20607622 0.22410956 -0.063505955 0.3427411
0.17611858 -0.21594083 -0.0059973258 -0.051660907 0.17752801 -0.2153046 -0.01370179 -0.04706331
00000000: 8150 31be 988a 553e 6241 1bbe e95c dd3e
00000010: 35d9 333e ea8c 5dbe f9dc 9cba 584a 65bd
00000020: 4dba 343e 81ff 5cbe 2637 01bc 7261 4ebd
00000030: 553b 54be 6809 5d3e 6dcd 013e 01c6 eabd
00000040: 5818 4ebe 0bee 5a3e e0ce 0d3e c2b6 58be
00000050: 9156 20bd af5b 173e d74d acbe 93e5 423f
00000060: 7bd5 bd3d 2620 a23d 57c5 d9be 85db 2a3f
00000070: 230e 70be 4086 6d3e cb53 903d 79aa 0f3e
00000080: 11f1 993d efd7 a6bd eb0f 8b3e 627d debe
00000090: 0be9 333e e38c 5ebe 9130 db3b 7210 81bd
000000a0: c81e 38be 1534 613e 508f 3e3e c7bf 39bf
000000b0: e69a 61be b5eb 653e dcd1 013e bfaf 16be
000000c0: d178 363e 2811 5cbe 83eb 92bc 0914 35bd
000000d0: a505 53be fa7c 653e 690f 82bd c37b af3e
000000e0: 6e58 343e 981f 5dbe 3785 c4bb 639a 53bd
000000f0: e7c9 353e cf78 5cbe 797d 60bc 75c5 40bd

functional.input_layer.bias f4 [16]
0.037449855 0.009544566 0.011055014 -0.030450922 -0.03352306 0.06340183 0.07658147 -0.011482175
-0.072421975 0.007494447 -0.043973755 -0.02534386 0.0131652355 0.018878922 0.010665386 0.012253994
00000000: 0565 193d d060 1c3c 1720 353c 3674 f9bc
00000010: 7a4f 09bd d2d8 813d bfd6 9c3d bc1f 3cbc
00000020: f951 94bd fa93 f53b d31d 34bd ed9d cfbc
00000030: 00b3 573c f8a7 9a3c dfbd 2e3c fac4 483c

functional.hidden_layer_0.weight f4 [16, 16]
0.41335195 -0.43540296 -0.43645242 1.0512697 1.068315 0.22757602 0.059385926 0.9595062
-0.11454576 -0.4394455 0.9726968 1.2303661 -0.43988422 0.53388685 -0.43535557 -0.4390443
0.31598237 -0.25515112 -0.25845873 0.8940793 0.9125283 0.11333195 -0.019992735 0.78587866
-0.0030642548 -0.25181314 0.8971869 1.0423423 -0.2627441 0.42155832 -0.25764704 -0.26059517
-0.9873722 0.11558512 0.08147209 -0.019200131 0.08227947 -1.6063812 -1.8020154 -0.5737377
0.59860027 0.15679823 0.26899374 -0.075508825 0.025395084 -0.8069999 0.09145042 0.04856314
0.105591156 -0.16865401 -0.1762581 0.7209329 0.7475095 -0.14990675 -0.24569523 0.5966583
0.13333386 -0.16016153 0.80137473 0.806476 -0.18592392 0.21608262 -0.17441191 -0.18124813
-0.26214325 -0.16370325 -0.18248014 0.5100277 0.51404124 -0.63153946 -0.7203798 0.41747537
0.47649786 -0.14056604 0.5107226 0.4927162 -0.2106118 -0.019368706 -0.17729712 -0.19829302
0.0012571994 0.0042465767 0.00021286769 0.58101517 0.7023134 -0.15135933 -0.18561746 0.32307884
0.13117693 0.0075141774 1.0119146 0.72575223 -0.000100487596 0.021466294 0.0005578219 0.0013721776
0.73357344 -0.3784738 -0.3698946 0.80513996 0.69369704 0.7544282 0.65699697 1.1077626
-0.337285 -0.38767955 0.2861626 0.89970535 -0.3575308 0.78625125 -0.37227836 -0.36299607
0.2690357 -0.23293021 -0.23722248 0.855965 0.8769834 0.051713675 -0.072829865 0.74119365
0.03435266 -0.22835046 0.8849008 0.99061805 -0.24271566 0.37685108 -0.2361801 -0.23996857
-0.9330749 0.0043630027 -0.025825405 0.1373633 0.21987458 -1.5492917 -1.7568969 -0.34929955
0.6312037 0.038103312 0.3329505 0.08579015 -0.07514272 -0.70657504 -0.01655799 -0.05489699
0.39601532 -0.30673575 -0.3077477 0.9635719 0.9749792 0.22367041 0.07126896 0.8713248
-0.066102095 -0.3071527 0.8943181 1.1324617 -0.31009918 0.4986478 -0.30730352 -0.30902296
-0.61128116 0.3369371 0.332506 -0.90867287 -0.8411715 -0.57394147 -0.4423512 -1.0160826
0.24648915 0.34169096 -0.4933007 -1.0401032 0.32539412 -0.67578447 0.33380777 0.3282671
-0.416108 0.33715084 0.33719227 -0.98772943 -0.9960106 -0.243379 -0.079187565 -0.89917797
0.07528141 0.34002858 -0.89613986 -1.1578039 0.33766782 -0.51749986 0.33712152 0.33719885
-0.7035402 0.524476 0.52641845 -1.0815206 -0.9746507 -0.58322364 -0.38407996 -1.3926822
0.2698532 0.5246293 -0.4281751 -1.2263616 0.5418387 -0.84312844 0.5243821 0.5360268
0.094903775 0.17544836 0.18931435 -0.61789745 -0.62044567 0.4263028 0.5230304 -0.54577565
-0.33206263 0.15955617 -0.589817 -0.639535 0.21304765 -0.10976152 0.18493205 0.20337795
-0.9962502 0.19382088 0.16137232 -0.15820523 -0.043663785 -1.4862155 -1.6623912 -0.74226195
0.57409304 0.23197629 0.20286418 -0.21606503 0.10772308 -0.865877 0.17087896 0.13003114
-0.055938475 0.16359943 0.17271724 -0.68622655 -0.7097818 0.21696094 0.30765057 -0.5666686
-0.18159537 0.15303327 -0.7576005 -0.75301546 0.18445738 -0.178388 0.17048968 0.17894737
00000000: dea2 d33e 23ed debe b176 dfbe 0190 863f
00000010: 8cbe 883f b009 693e a83e 733d 33a2 753f
00000020: f896 eabd 00ff e0be a802 793f a37c 9d3f
00000030: 8138 e1be cfac 083f ede6 debe 6aca e0be
00000040: 71c8 a13e 2ba3 82be b454 84be 62e2 643f
00000050: 749b 693f 951a e83d cec7 a3bc 582f 493f
00000060: aad1 48bb a7ed 80be 0aae 653f 796b 853f
00000070: 6586 86be 7ed6 d73e 50ea 83be bb6c 85be
00000080: 6dc4 7cbf e4b7 ec3d d7da a63d 9849 9dbc
00000090: 2482 a83d e69d cdbf 71a8 e6bf 79e0 12bf
000000a0: de3d 193f b78f 203e 8cb9 893e 5fa4 9abd
000000b0: 5a09 d03c 8c97 4ebf 5c4a bb3d 25ea 463d
000000c0: 2d40 d83d a3b3 2cbe 017d 34be 0f8f 383f
000000d0: c85c 3f3f 2881 19be 8897 7bbe 99be 183f
000000e0: ac88 083e 6201 24be e526 4d3f 3675 4e3f
000000f0: d762 3ebe c344 5d3e 0999 32be 1c99 39be
00000100: a437 86be d3a1 27be 13dc 3abe 2d91 023f
00000110: 3598 033f 92ac 21bf d06a 38bf 55bf d53e
00000120: 87f7 f33e 8bf0 0fbe b7be 023f 4c45 fc3e
00000130: 9faa 57be 1fab 9ebc 608d 35be 530d 4bbe
00000140: 9dc8 a43a de26 8b3b 3c35 5f39 69bd 143f
00000150: d0ca 333f f1fd 1abe 8112 3ebe 976a a53e
00000160: 3f53 063e 7d39 f63b 6b86 813f e6ca 393f
00000170: debc d2b8 15da af3c cb3a 123a a4da b33a
00000180: 78cb 3b3f 51c7 c1be d362 bdbe a71d 4e3f
00000190: 2196 313f 3522 413f f430 283f 2acb 8d3f
000001a0: 9fb0 acbe ef7d c6be e883 923e 1753 663f
000001b0: 470e b7be c347 493f 459b bebe 9fda b9be
000001c0: 0cbf 893e 4285 6ebe 73ea 72be 8620 5b3f
000001d0: fc81 603f b8d1 533d d327 95bd debe 3d3f
000001e0: 60b5 0c3d b4d4 69be dc88 623f 2599 7d3f
000001f0: 748a 78be a0f2 c03e 32d9 71be 52ba 75be
00000200: ffdd 6ebf 85f7 8e3b cd8f d3bc f7a8 0c3e
00000210: cd26 613e 314f c6bf ffe1 e0bf 64d7 b2be
00000220: 9196 213f 3812 1c3d 7d78 aa3e bfb2 af3d
00000230: 6de4 99bd 1ae2 34bf 9fa4 87bc abdb 60bd
00000240: 85c2 ca3e 780c 9dbe 1b91 9dbe a6ac 763f
00000250: 3d98 793f db09 653e 76f5 913d 240f 5f3f
00000260: 8960 87bd 1e43 9dbe 08f2 643f 81f4 903f
00000270: 52c5 9ebe c44e ff3e e356 9dbe 4238 9ebe
00000280: ec7c 1cbf 0583 ac3e 3a3e aa3e c99e 68bf
00000290: 0457 57bf d4ed 12bf db7b e2be ff0e 82bf
000002a0: a767 7c3e 1ef2 ae3e e991 fcbe 1a22 85bf
000002b0: 0f9a a63e 3600 2dbf dae8 aa3e a012 a83e
000002c0: 1c0c d5be 099f ac3e 77a4 ac3e d6db 7cbf
000002d0: 8dfa 7ebf 5838 79be 172d a2bd 8730 66bf
000002e0: 242d 9a3d 3a18 ae3e 6c69 65bf eb32 94bf
000002f0: cce2 ac3e df7a 04bf 319b ac3e 54a5 ac3e
00000300: 361b 34bf 0f44 063f 5cc3 063f 446f 8abf
00000310: b582 79bf 254e 15bf 21a6 c4be 6943 b2bf
00000320: 332a 8a3e 1b4e 063f c439 dbbe 6bf9 9cbf
00000330: f1b5 0a3f 44d7 57bf e83d 063f 0d39 093f
00000340: e95c c23d bca8 333e 9fdb 413e 872e 1ebf
00000350: 87d5 1ebf 5c44 da3e 52e5 053f f4b7 0bbf
00000360: 1d04 aabe b162 233e 3ffe 16bf 91b8 23bf
00000370: 2a29 5a3e a6ca e0bd d45e 3d3e 4f42 503e
00000380: 410a 7fbf fb78 463e c93e 253e 8d00 22be
00000390: ccd8 32bd 4f3c bebf 3cc9 d4bf e104 3ebf
000003a0: c3f7 123f 318b 6d3e a1bb 4f3e 2740 5dbe
000003b0: eb9d dc3d 1daa 5dbf e5fa 2e3e e226 053e
000003c0: be1f 65bd 9c86 273e cadc 303e 8bac 2fbf
000003d0: 43b4 35bf 022b 5e3e 6084 9d3e 3211 11bf
000003e0: 23f4 39be c1b4 1c3e 1bf2 41bf 9fc5 40bf
000003f0: 65e2 3c3e 58ab 36be d994 2e3e fb3d 373e

functional.hidden_layer_0.bias f4 [16]
-0.020134063 -0.034215927 -0.06207454 -0.051200848 -0.06056723 -0.047127943 0.0073198727 -0.03758681
-0.06850663 -0.029460259 0.0048164884 0.028034521 0.0026447675 0.05371435 -0.05556815 0.055682626
00000000: 31f0 a4bc 0026 0cbd df41 7ebd fbb7 51bd
00000010: 5815 78bd 3b09 41bd 8bdb ef3b a0f4 19bd
00000020: 344d 8cbd a456 f1bc a2d3 9d3b a7a8 e53c
00000030: d653 2d3b 9403 5c3d 6e9b 63bd 7713 643d

functional.output_layer.weight f4 [3, 16]
-0.74660563 -0.44262582 0.07128331 -0.35092157 -0.1875307 -0.20867778 -0.4238734 -0.4190023
0.020678917 -0.5136759 0.47298357 0.5592923 0.5474716 0.21883476 0.11593239 0.3266866
-0.08675711 -0.011150679 0.05509055 0.09640998 0.058539193 0.22846802 -0.13300388 0.012748305
0.04400298 -0.049058538 0.121846564 0.06310756 0.23482831 -0.040529918 0.06737143 -0.100916624
-0.14330824 0.06877377 1.4594312 0.62158906 1.2583741 0.573872 -0.99658674 0.1954648
1.4692348 -0.13772355 0.70497894 0.16966496 0.62937003 -0.8933614 1.4334091 -0.7416352
00000000: 8c21 3fbf da9f e2be fcfc 913d feab b3be
00000010: 0c08 40be a1af 55be ef05 d9be 7887 d6be
00000020: d566 a93c 4480 03bf e72a f23e c82d 0f3f
00000030: 1927 0c3f 3816 603e f66d ed3d 7743 a73e
00000040: b6ad b1bd 56b1 36bc a1a6 613d 9872 c53d
00000050: cbc6 6f3d 85f3 693e 2b32 08be 44de 503c
00000060: 783c 343d 9bf1 48bd b18a f93d 893e 813d
00000070: d576 703e b302 26bd 08fa 893d 60ad cebd
00000080: 65bf 12be 43d9 8c3d a4ce ba3f 7620 1f3f
00000090: 6712 a13f 47e9 123f 4f20 7fbf ed27 483e
000000a0: e30f bc3f 6707 0dbe 8079 343f a7bc 2d3e
000000b0: 651e 213f 55b3 64bf f379 b73f cedb 3dbf

functional.output_layer.bias f4 [3]
0.057377655 -0.07279311 -0.11861773
00000000: d504 6b3d 8e14 95bd daed f2bd
